Models/best_model_A_inverse_u.pth (torch, 24373 bytes, 9 tensors)

net.0.weight f4 [40, 1]
000000 3e e6 a0 bf 41 9e 99 be 7f 8c 27 bf d4 33 15 be
       -1.2570264 -0.3000355 -0.65448755 -0.14570552
000010 71 0f 93 bf 49 fd 01 3f 7c e6 b1 bf a0 0a 2e be
       -1.1489087 0.5077711 -1.3898463 -0.1699624
000020 1a d4 d9 3e 44 72 d5 be e1 11 38 3f 72 d0 44 3e
       0.42544633 -0.4168874 0.7190228 0.1922014
000030 1b e7 51 3f 52 ec 19 3f 20 8a 2a bf e9 4f ac 3d
       0.81993264 0.6012622 -0.6661701 0.08413679
000040 05 62 be be eb 83 cf 3e cb 87 24 bf d9 e1 d0 3e
       -0.37184158 0.40530333 -0.64269704 0.40797308
000050 9d dd 53 33 60 54 f1 be 95 c6 c5 be 54 ce f3 3e
       4.9328822e-08 -0.47134686 -0.3862807 0.47618353
000060 f7 84 5f 3f 24 8b f0 3e 8a 03 7e be 6f 99 7e b3
       0.87312263 0.46981156 -0.24806038 -5.927853e-08
000070 3d 7d 02 3f 6d 78 63 bf a6 eb a6 3e 17 6b 01 bf
       0.5097235 -0.8885563 0.3260166 -0.5055403
000080 77 82 4e 3f 78 04 25 bf f1 fa 8d 3e b3 16 d2 3e
       0.80667824 -0.64459944 0.27730516 0.41032943
000090 7e df 39 3f 75 48 b5 b5 21 cb 3f 3f a6 1c 3c bf
       0.72606647 -1.3506639e-06 0.74919325 -0.73481214

net.0.bias f4 [40]
000000 ef 88 08 be de 4a bb bf 46 cd e6 3c 12 8b 86 3c
       -0.13333486 -1.4632223 0.028174054 0.016423736
000010 23 04 84 be fd eb 6c 3e fb 67 16 be 90 a5 87 bf
       -0.25784406 0.23136897 -0.14688103 -1.0597401
000020 46 22 9e 3f f3 06 2f 3f f4 77 a1 3e 10 a8 6e 3f
       1.235421 0.6836998 0.3153683 0.93225193
000030 7b 50 82 3e 0a 50 c7 3e fd a2 55 3f cb 3e 68 bb
       0.25452027 0.38928252 0.83451825 -0.0035437818
000040 4e 9f 6f bf a5 04 00 bf df dd b4 bd ef f8 23 bd
       -0.93602455 -0.50007087 -0.08831381 -0.040032323
000050 78 ce 03 b3 9f 5f 22 3f 0a 86 ce 3d c9 bf 3e bf
       -3.0688597e-08 0.63427156 0.1008416 -0.7451139
000060 7b 18 1c be ed be 8f bd 80 26 39 3f 9e 96 46 b3
       -0.15243714 -0.07018838 0.7232437 -4.6237453e-08
000070 5d 4b 3e be 47 ae 04 be 00 a8 4e be 98 f4 06 be
       -0.18583436 -0.12957107 -0.20181274 -0.13179243
000080 6d 90 6f bf 99 65 6b 3f b8 f6 93 3e 00 eb f6 be
       -0.9357975 0.919519 0.2889917 -0.48226166
000090 55 18 37 bf 92 c2 83 b2 2d 85 75 3f 6a c0 6d bf
       -0.715215 -1.5338887e-08 0.95906335 -0.92871726

net.1.weight f4 [40, 40]
000000 a8 02 71 3d 49 ad 3d 3d 4d 65 5e be 93 a9 0c be
       0.058840424 0.046307836 -0.2171833 -0.13736562
000010 02 31 3a bd 5b e9 3b 3e 68 4a 66 3e f0 b6 2f be
       -0.045456894 0.18350737 0.22489321 -0.17159629
000020 90 af 8a bd 71 1a bc 3d 78 bd 67 3c 6e ac 9b 3d
       -0.06771767 0.09184731 0.014144294 0.07601248
000030 6e 5a 05 be 40 70 a5 bd 2c 5b d9 3d a9 28 8c 3c
       -0.13022777 -0.080780506 0.10613093 0.017109232
000040 2f 62 2a bd 3c c2 90 3d 81 d0 73 3c f7 01 27 3e
       -0.04159754 0.07068297 0.014881254 0.16309343
000050 c5 27 ca 34 df 81 b6 3d 3b 78 10 be 6f b9 b3 bd
       3.7654368e-07 0.0891149 -0.14108364 -0.08775603
000060 73 16 8a 3e c7 24 8c 3e e4 cb f8 3d c5 35 a0 b5
       0.26970252 0.2737181 0.12148264 -1.1936578e-06
000070 a9 80 fd 3c cf 70 07 be 6a d1 26 3d 39 d4 fb bd
       0.030945139 -0.13226627 0.040727057 -0.12296338
000080 77 4a ac bd eb c5 5b 3d 8e e6 49 3e 7e f2 19 3e
       -0.084126405 0.053655546 0.19716856 0.1503391
000090 42 69 89 3c 63 75 55 b7 f2 63 80 3d 96 56 03 bc
       0.016773824 -1.2723121e-05 0.06269063 -0.008016249
0000a0 66 0a 96 be 21 c3 52 3d e3 40 87 3e 6f ae 05 3d
       -0.29304808 0.05145562 0.26416692 0.032637056
0000b0 2c 15 53 be b5 b0 6b 3c a5 a5 a7 be e7 4d d3 bd
       -0.20613545 0.014385392 -0.32743564 -0.10317593
0000c0 d6 60 ce 3d 24 9c 9a bd f1 5e f9 3d a8 95 3f bc
       0.10077064 -0.07549313 0.12176312 -0.011693396
0000d0 42 a2 a5 3d 56 1e 97 bd 9b ca 90 bd c5 26 77 bc
       0.08087589 -0.07378833 -0.07069894 -0.015084927
0000e0 e9 77 9c 3d d7 a7 59 bd 37 59 8e 3d 65 a9 22 bd
       0.076400585 -0.05313858 0.0695061 -0.03971233
0000f0 14 fb 02 b5 a5 e9 9f 3d 7d 0f ac 3d c9 08 5b 3b
       -4.879414e-07 0.07808236 0.08401392 0.0033421984
000100 f7 a0 d4 bd 68 31 6f be 28 41 81 bd 6a d2 1e b5
       -0.10382264 -0.2335869 -0.06311256 -5.916578e-07
000110 a4 41 ed bd 80 6c a3 bd 51 08 02 be 89 2e 28 3e
       -0.115847856 -0.07979679 -0.12698485 0.16424002
000120 04 be f1 3d 97 20 42 3d 8e 01 11 be 8d 37 bf 3c
       0.11803821 0.04739436 -0.1416075 0.023341918
000130 0c 1a c3 3c 38 33 35 b6 3b f3 21 3e c3 e6 80 3d
       0.023816131 -2.7000915e-06 0.15815441 0.06294014
000140 3e f1 db bd 53 3b 5f 3d ec 10 6f bd 15 a7 f3 bb
       -0.10739373 0.054499935 -0.058365747 -0.007435689
000150 6f 00 83 be 37 a5 aa bd a5 4c 9e be e2 dc dd bd
       -0.25586268 -0.083322935 -0.3091785 -0.10833146
000160 dc bd 9a 3d 0c 43 c3 3d 05 cd f4 3b 3c d2 b4 bd
       0.07555744 0.095342726 0.0074707293 -0.088291615
000170 c5 f9 72 3e bd 84 1e 3e c9 8d 25 3e 4c fb 1d 3e
       0.23728092 0.15480323 0.16167368 0.15427893
000180 7d 55 af bd bb fe f7 bd 61 de 53 be 7f 30 48 3d
       -0.085612275 -0.12109133 -0.206903 0.048874374
000190 3e f2 20 b4 c2 41 31 3e 18 65 b8 3c 79 ed 1d 3d
       -1.4989288e-07 0.17310241 0.022509143 0.03855655
0001a0 07 ac 17 3d 9b a8 2d 3c 7c a6 35 3d c2 7f e5 b4
       0.037029292 0.010599281 0.044348225 -4.274753e-07
0001b0 79 2f f9 3d 65 25 72 be 9f fe 7b 3d a5 93 2f be
       0.12167258 -0.23647077 0.061522122 -0.17146166
0001c0 f4 ef 11 be 7b ad 59 3c 9f 4d b8 3d 25 02 9b 3d
       -0.14251691 0.01328599 0.0899918 0.075687684
0001d0 3c 65 5b bd 02 6a 38 b5 cc de 0a bd 4c 0d f0 3d
       -0.05356334 -6.8699603e-07 -0.033903882 0.11721286
0001e0 a4 73 da bd a5 68 e1 3c c3 f9 2e be 38 19 1f 3d
       -0.10666588 0.027515719 -0.17087464 0.03884241
0001f0 bf 60 16 3d 0e e6 17 3e a0 91 f1 bb c0 5e c8 bb
       0.036713358 0.14833853 -0.007372096 -0.0061148107
000200 37 cb 99 bc 02 e2 96 3d 4f 92 dd 3d d8 38 0c 3d
       -0.018773658 0.07367326 0.10818922 0.034233898
000210 6a dc c5 3d d1 ea 0a 3e 39 33 88 bc 60 92 86 bc
       0.09661181 0.13566138 -0.016625987 -0.016427219
000220 63 49 e9 bd ef f5 21 bd a2 25 fa bd 9c b2 c3 3d
       -0.113909505 -0.03954118 -0.12214209 0.095555514
000230 4a 41 e7 33 c3 e0 50 bc 13 57 64 bc c4 79 bc 3b
       1.0768652e-07 -0.0127489 -0.013936776 0.0057518203
000240 8f a7 e9 bb 7a 52 20 3e d3 ce d1 3d b0 41 99 33
       -0.0071305702 0.15656462 0.10244527 7.136566e-08
000250 51 85 a2 bd 57 27 4e be ce fa 5b 3d 28 bf 3a be
       -0.07935584 -0.20132194 0.053705983 -0.18236983
000260 a7 51 3f be 6d 77 17 3e f2 3c 04 3e 6a 76 2a be
       -0.18683492 0.14791651 0.12913874 -0.16646734
000270 bc 4d 34 3d e7 2d 89 b4 c2 20 f5 3d 56 6f dd bd
       0.044019446 -2.5551637e-07 0.11969139 -0.10812251
000280 cd 93 e3 be 6f 64 d3 bd 92 68 17 be 19 81 09 be
       -0.444487 -0.103218906 -0.14785984 -0.13428153
000290 c9 b7 0d be 2f 6c 14 bd 53 71 a6 be 2c c6 24 3b
       -0.1383964 -0.036235984 -0.32508335 0.0025142534
0002a0 81 0c 09 3a e7 00 e7 bd f6 21 02 3e 8d 77 9f bd
       0.00052279985 -0.11279469 0.12708268 -0.077864744
0002b0 7f 7c 39 3e 03 4e 31 3e 92 db ee 3c 0c a6 78 3d
       0.18113898 0.17314915 0.029157434 0.06070523
0002c0 33 64 c2 3d 67 ac 1b bd 6d ca 84 be 90 6f ce 3d
       0.09491768 -0.038006213 -0.2593569 0.100798726
0002d0 d7 5c 90 b5 84 9a 24 bd ec 6e cb bd ea 7a 6a bd
       -1.0755856e-06 -0.04018642 -0.09933266 -0.057246126
0002e0 64 fa 21 3e 5d f1 0a bd 3f a7 0d 3c 26 3c 30 b6
       0.15818173 -0.03392159 0.008645832 -2.6261055e-06
0002f0 fc 32 9c bd 88 b9 6c be 68 09 00 bd f5 69 5c 3d
       -0.07626912 -0.2311765 -0.03125897 0.053811986
000300 c0 cf 9d bd da 96 3b 3e a7 c5 1c 3e 00 fa d2 ba
       -0.07705641 0.18319264 0.15309773 -0.0016096234
000310 1c 87 2a be c1 67 bd b6 91 13 34 bc 3e 1e fe 3d
       -0.16653103 -5.6447175e-06 -0.010990993 0.12408112
000320 14 04 00 be c5 b3 1d 3c 01 08 f9 bd 94 10 91 bb
       -0.12501556 0.00962538 -0.1215973 -0.004427025
000330 a3 6f 42 be 47 26 4e 3e ab 0e d9 bd c1 7e 49 bd
       -0.18987899 0.20131789 -0.10598501 -0.049193148
000340 5a 79 cf 3d cb 35 e7 3d 49 03 65 3d b2 13 9b 3d
       0.10130568 0.11289557 0.055911336 0.07572116
000350 ab c3 f8 3d b3 44 3d 3e 1d f1 06 3e f3 22 c3 3b
       0.12146696 0.18483238 0.13177915 0.005955094
000360 d3 1e c9 bd 54 cd a1 bd 7b 65 68 bd be d0 08 3e
       -0.098203324 -0.07900491 -0.056737404 0.13360879
000370 ce 01 49 b3 eb cd 06 3e f4 58 a9 3d 4f 70 90 bd
       -4.68006e-08 0.13164489 0.082689196 -0.07052671
000380 d1 57 dd 3d 01 38 bc 3d 5a 3e 33 3e d6 eb aa b2
       0.10807765 0.091903694 0.17504254 -1.989785e-08
000390 2c 0c 0b 3d 58 f9 ee bd 4b f4 89 bd b6 d6 05 be
       0.033947155 -0.11668652 -0.06736048 -0.13070187
0003a0 73 18 6c bd d8 84 2e 3e 2f c7 7b 3c 68 fe 94 bc
       -0.057640504 0.17042863 0.015367313 -0.018187717
0003b0 bb 1c 95 bd 11 4c 93 b3 99 a8 80 3d 96 0b d3 bc
       -0.072808705 -6.859057e-08 0.062821575 -0.02576236
0003c0 ab 9e 60 3d e0 35 80 3d 20 3c 84 3d f7 31 61 3c
       0.054838818 0.06260276 0.064567804 0.013744823
0003d0 12 d8 cb 3d b5 65 9a bd 04 e3 c9 3d 7f 5b 0d 3d
       0.099533215 -0.0753893 0.09857753 0.034511086
0003e0 b1 e4 8c bd 0b 86 22 3d 5f c6 1e bd b4 91 72 bd
       -0.06879557 0.039678615 -0.0387634 -0.059220985
0003f0 61 60 0e bd 0f 87 6d bd ac 69 4c bd c7 1c c6 bc
       -0.034759883 -0.05799013 -0.049905464 -0.024183644

net.1.bias f4 [40]
000000 40 d9 8b 3d 3a 12 39 3e 0a aa a0 3d 9b 3b 4a be
       0.068285465 0.18073359 0.078449324 -0.197493
000010 1b 1c 1e be 49 1f 41 bd a5 f8 42 3e ae a8 fd 3d
       -0.15440409 -0.047148976 0.19040163 0.12385689
000020 f5 16 be bd 4f 1c fd bd 30 2c ae bd 0e 22 f8 bd
       -0.092817225 -0.12358915 -0.08504522 -0.121158704
000030 f1 b0 ae 3d 9e 16 ce 3d 77 00 38 be 72 93 f2 bd
       0.08529843 0.10062908 -0.17968927 -0.11844529
000040 61 e5 50 be 75 6a 14 3e 4a 15 bf bb 0e dc 0b 3c
       -0.20400001 0.14493735 -0.0058313953 0.008536352
000050 0b 32 0e 3e d4 99 02 be bf 9e 11 3e 52 0f f4 bc
       0.13886277 -0.12753993 0.14220713 -0.029792462
000060 43 88 1c 3d 78 9c 14 3e 42 b8 33 be 0a ca 1b be
       0.038215887 0.14512813 -0.17550758 -0.1521379
000070 0c ba 6d bd 70 ef f2 bd bb 58 a2 bd ff 81 d8 bc
       -0.058038756 -0.11862075 -0.0792708 -0.026429174
000080 b6 f4 82 3d 61 fb bc 3d ee ee 31 be b3 8f 37 be
       0.06394331 0.09227634 -0.173763 -0.1792591
000090 0a d9 26 3e 14 b6 64 be 83 64 f9 bd 89 4c 42 3c
       0.16293731 -0.22335082 -0.12177374 0.011859068

net.2.weight f4 [40, 40]
000000 53 b3 47 be e7 ee 85 3c b0 cf 09 be 91 94 86 bd
       -0.19502 0.01634927 -0.13458133 -0.065713055
000010 54 31 02 be 09 ea 54 bd 8b d9 36 3e 92 e5 43 3c
       -0.1271413 -0.051981006 0.17856424 0.011956589
000020 88 fd 00 3c ec 9c 96 bd 56 5e 0b 3d 15 28 7f bd
       0.007872947 -0.07354149 0.034025513 -0.062294085
000030 a2 54 ee 3b ac 34 9a bc b2 41 f4 bd ce 73 d7 bd
       0.0072732726 -0.018823944 -0.11926593 -0.10520135
000040 13 13 95 bd 8a 87 a6 3d a3 d9 80 bd b4 b5 1c bd
       -0.07279029 0.08131321 -0.06291511 -0.038259223
000050 11 41 2e bd 28 cc 69 bd 0e 7b 8d 3a ea 14 0a 3d
       -0.04254252 -0.057079464 0.001079412 0.03371135
000060 e5 c6 ef 3d 86 50 e6 3d b6 61 f7 bd 0f c6 64 be
       0.11707858 0.112458274 -0.12079184 -0.22341178
000070 5a 77 4b 3a 29 f2 a5 3d 8b ff d3 bd 20 df 31 3e
       0.000776162 0.08102829 -0.10351475 0.17370272
000080 d0 27 5d 3e df d0 da 3d f1 43 39 3d 20 77 2e 3c
       0.21597219 0.1068437 0.04523081 0.010648519
000090 9a ac 49 3d 8e 1e 55 be 14 5d b8 bd 87 6d da bd
       0.04923687 -0.20812437 -0.09002128 -0.10665422
0000a0 64 61 12 3e 9a 47 8c bc 06 26 f9 3d a4 4d 3d 3d
       0.14294964 -0.017123986 0.121654555 0.046216622
0000b0 31 5c 6f 3d fd c6 31 3b 4b fe d2 bd af 33 26 bc
       0.05843753 0.0027126663 -0.10302409 -0.010144158
0000c0 b4 c2 27 3c f4 65 62 3c 24 66 a7 be c2 f4 4b 3c
       0.010239292 0.013818253 -0.32695115 0.0124484915
0000d0 65 9a 86 3b 25 8d 92 bc 5c 73 24 bb 4d e7 92 3c
       0.0041077607 -0.017889569 -0.0025093174 0.017932558
0000e0 f8 bc 20 3b 3b 3b 38 bc cf 43 8b 3d 1a 90 bd 3c
       0.0024526697 -0.01124459 0.06800043 0.023140002
0000f0 91 e4 ce bb 83 9b 8c 3b 0d 39 95 bb 78 aa 46 bb
       -0.0063138683 0.0042909994 -0.00455392 -0.003031401
000100 b5 08 da bd 45 6b 83 bb 61 f7 ce 3b e0 99 8b 3d
       -0.10646192 -0.0040105903 0.006316111 0.06816459
000110 d4 64 3e 3e 84 c7 eb 3c 24 67 66 3e a7 78 2e be
       0.1859315 0.02878166 0.22500283 -0.17038213
000120 3b a2 1d bc 2e 61 dd bd a9 0d 06 3d 26 af 7f 3c
       -0.009621198 -0.10809551 0.03272787 0.0156057235
000130 82 25 df bb 73 ba 8a 3d d5 16 29 3c 67 aa f1 3d
       -0.006809891 0.067738436 0.010320385 0.1180008
000140 3e d1 fa 3d 5c 00 3a bd 8c 8b 2a 3e 6a 75 8c 3c
       0.12246941 -0.0454105 0.16654795 0.017145831
000150 74 6d fb 3d 0d ad 97 3d 58 95 ad bd 87 64 10 bb
       0.12276736 0.07406054 -0.08475751 -0.0022032575
000160 11 86 96 3d 43 65 c8 3d af b3 b5 3c 08 2d 74 3d
       0.0734979 0.09784939 0.022180406 0.059613258
000170 ec c4 7b 3d a2 46 e9 bd 99 53 08 3a b5 98 f3 3c
       0.061467096 -0.11390425 0.00052004453 0.029735902
000180 c8 78 ce 3d 10 97 29 bd 6e 94 42 3e 41 72 57 bd
       0.10081631 -0.04140383 0.19001934 -0.052599195
000190 1d 6f f2 3c 3c 25 29 bd dd c8 eb bd 3d fc 2a be
       0.029593999 -0.041295275 -0.11512921 -0.16697784
0001a0 56 b7 34 3d e4 b8 df bd af ff 50 bb f5 f5 39 3e
       0.044120155 -0.10923937 -0.003189068 0.18160231
0001b0 16 9f 01 3e c8 a6 a3 3d 5d 41 7b 3e 3c c5 06 be
       0.12658343 0.079907954 0.24536653 -0.13161176
0001c0 c0 01 40 3c b2 65 22 be 3a c4 1c bd 1a d8 0d bd
       0.011719167 -0.15859106 -0.038273074 -0.03462992
0001d0 67 da 16 bd 7a 0f 55 3d 53 3d a9 3c d8 6c 9c 3c
       -0.03682938 0.052016713 0.020659124 0.01909487
0001e0 5c 2c ea b7 41 00 94 37 dc 36 53 b6 9d 3c a6 35
       -2.791563e-05 1.7643093e-05 -3.1473382e-06 1.2385605e-06
0001f0 a5 4b 28 b7 4d f3 e3 34 73 3d 21 b7 67 7d 08 b7
       -1.0031193e-05 4.245907e-07 -9.610655e-06 -8.135429e-06
000200 b9 34 f9 35 4d 90 3f 36 7c d1 3a b7 40 a1 8d 36
       1.856729e-06 2.8545212e-06 -1.1135238e-05 4.2208994e-06
000210 9f 9d b6 b5 f6 9e 79 b6 9f 85 a8 b5 82 e3 f1 36
       -1.360593e-06 -3.7196419e-06 -1.2555864e-06 7.208845e-06
000220 b7 ee 97 36 0d 78 19 b7 a6 47 46 b7 95 bb b1 b6
       4.5279407e-06 -9.147462e-06 -1.1818402e-05 -5.2968485e-06
000230 0a 9d 71 b6 2e 59 c9 36 ce 9a c7 b5 18 18 80 b4
       -3.6003207e-06 6.0006487e-06 -1.487171e-06 -2.3859388e-07
000240 fd c6 6d b7 40 a5 52 b6 51 61 bb 34 c0 93 b9 b6
       -1.4172631e-05 -3.1388627e-06 3.490227e-07 -5.53063e-06
000250 6d 03 f2 35 c0 ad 06 37 5a 31 87 b5 ac a9 3d b5
       1.8031402e-06 8.027477e-06 -1.0072647e-06 -7.065489e-07
000260 44 9e 20 35 50 1e 09 37 e9 77 99 37 7a 5e 29 35
       5.983495e-07 8.172894e-06 1.8294859e-05 6.309489e-07
000270 18 c4 fe b6 68 7a a9 b7 75 d7 38 36 d6 49 c4 b6
       -7.592618e-06 -2.020337e-05 2.754355e-06 -5.849851e-06
000280 76 b4 de 3d 9d d2 16 3e 93 3c f6 3c b6 97 94 3d
       0.10874264 0.1472878 0.03005818 0.07255499
000290 03 13 3c 3e 87 e7 5e bd 43 4e 7f bd c3 83 26 3d
       0.18366627 -0.05442002 -0.062330496 0.040653
0002a0 12 9e 11 3d be 21 8e 3d 71 3d d6 bd 42 f4 a9 3c
       0.03555114 0.069400296 -0.10460938 0.020746354
0002b0 55 f7 fd 3d d4 f6 76 bd cf 80 38 bd ca e4 ba 3d
       0.124006905 -0.060293987 -0.045044716 0.09125669
0002c0 fb a2 1e bc 5d fd 18 bd b9 e8 3c 3e 80 76 ee bc
       -0.009682412 -0.037351 0.18448152 -0.02910924
0002d0 6b 1b f7 bd a3 aa ee bc c2 09 74 3d 31 5d c8 bd
       -0.120657764 -0.0291341 0.05957962 -0.097834
0002e0 f9 92 7f bc 21 45 b2 bd d8 86 c3 3d f3 2d 47 3e
       -0.015599006 -0.087045915 0.09547204 0.19451122
0002f0 e6 9e 9c 3d 78 9c 2a 3c be cb 35 3e 4d 04 89 bc
       0.07647495 0.010413282 0.17753503 -0.016725684
000300 7d b9 e2 bd 36 fa 42 be 21 5b 1c 3e c8 f0 0f bd
       -0.11070535 -0.1904076 0.15269138 -0.035141736
000310 ff ce 1c bc 57 3f 82 bd 5d 97 7c bd aa db 15 3e
       -0.009570836 -0.06359737 -0.06166779 0.14634576
000320 1f 18 a3 bd ec 5e e7 3b 76 f1 8d bc b8 27 4a bb
       -0.07963585 0.007060876 -0.017327052 -0.0030846428
000330 7c f0 be bc 9f 2e a2 bb 47 34 91 3c d9 e4 1d 3c
       -0.023308031 -0.0049494053 0.017725123 0.009637081
000340 da 3a d6 bb f2 d7 d3 bb 3d 34 ce 3d f7 fe d5 bb
       -0.0065377774 -0.0064649517 0.100685574 -0.0065306383
000350 ce 05 bc bb de 42 de 3b 33 ee 02 bc e4 47 40 bc
       -0.0057379967 0.0067828735 -0.007991361 -0.01173589
000360 a1 7b 9b bb 6d fa 41 3c 99 fb ce ba e8 da c2 3c
       -0.0047449623 0.011839491 -0.0015791535 0.023786023
000370 25 88 de 3b 8c 52 08 bc 9a 04 bc 3b ec c9 55 3c
       0.006791132 -0.008320462 0.0057378532 0.01304863
000380 b7 be 80 3c 4d 07 a7 3b 09 da 9e bb 1b 63 26 3b
       0.01571594 0.005097306 -0.004847769 0.0025388661
000390 f0 d0 04 be 59 47 31 bc f6 ca cc bd bc c6 36 3c
       -0.12970328 -0.010820233 -0.09999649 0.01115578
0003a0 26 b0 af bb 83 fe a6 3a 69 3f bc bc 4b 9f a8 bb
       -0.0053615747 0.0012740645 -0.022979455 -0.0051459423
0003b0 8e 0b 1c 3c 2b cf 51 bc a8 14 b9 bb ac 2c 81 bc
       0.009524239 -0.01280574 -0.0056482144 -0.015768372
0003c0 28 b5 75 b5 fb 8c 50 36 2b 8c f0 b4 db bf 50 36
       -9.153323e-07 3.1076477e-06 -4.480547e-07 3.110609e-06
0003d0 d0 d7 b0 b6 22 fe ab 35 fc 4a 16 b6 0a 88 c4 b6
       -5.2703326e-06 1.2814455e-06 -2.2395388e-06 -5.857092e-06
0003e0 38 3d 37 36 9f b7 12 36 81 87 5d 36 e7 66 e4 35
       2.730476e-06 2.1862577e-06 3.301044e-06 1.7017272e-06
0003f0 86 96 a2 35 e7 1c 49 b6 34 5f 0d 36 e2 60 19 36
       1.2113749e-06 -2.9968157e-06 2.1066053e-06 2.285517e-06

net.2.bias f4 [40]
000000 a2 0f 57 be 89 28 ba 3e db 15 73 3e 39 60 5a b5
       -0.21002057 0.3635905 0.23738806 -8.135135e-07
000010 73 02 4b 3e 60 4b 0b be 67 0e 93 b5 10 28 59 3e
       0.19825153 -0.13602972 -1.0956545e-06 0.21206689
000020 35 09 97 b7 1c ff 9a 3e 5b 6a b1 3e 96 6b 81 3e
       -1.800489e-05 0.30272758 0.34651455 0.25277394
000030 33 86 10 36 03 43 1b be b2 a8 05 be c4 34 9a be
       2.1535786e-06 -0.15162282 -0.13052633 -0.30118382
000040 2c e2 3b b7 a3 b3 af 3e 02 ad 05 3e 0d 14 52 3c
       -1.1198728e-05 0.3431674 0.13054278 0.012822163
000050 78 a2 3a 36 2c 52 bb 3e 54 2e a3 be 3c f3 16 3e
       2.781073e-06 0.3658613 -0.31871283 0.14741224
000060 32 66 6e 3e 03 93 0a be d4 32 a3 3e 01 c3 2f be
       0.23281172 -0.13532643 0.31874716 -0.17164232
000070 67 4c 56 3e 5f dc f6 bd e0 74 8b 3e e0 ed 58 3e
       0.20927583 -0.12053751 0.27237606 0.21184492
000080 fb a5 64 be b2 78 8a be 47 9c 3c be 36 d3 48 bd
       -0.22328942 -0.27045208 -0.1841899 -0.04902955
000090 d6 78 1a 3e ad 3f 24 be 7e 84 74 be ca 02 4e b7
       0.15085158 -0.16039915 -0.23878667 -1.2279206e-05

net.3.weight f4 [40, 40]
000000 1f d7 38 b7 48 9d d2 36 d7 55 89 b6 79 a6 16 b2
       -1.1017341e-05 6.2767976e-06 -4.0929112e-06 -8.769001e-09
000010 20 92 95 b7 1c 53 6e 36 d4 d3 a0 b0 af 8c 26 37
       -1.7830229e-05 3.551314e-06 -1.1701737e-09 9.9271265e-06
000020 b4 6c 49 b2 70 ef 7f 36 aa d9 11 b7 5b 75 46 37
       -1.1724456e-08 3.8137332e-06 -8.693352e-06 1.1829044e-05
000030 a9 c6 89 b0 84 5e 6d 36 3a a4 3e b4 f6 9d af 33
       -1.0024525e-09 3.5370767e-06 -1.7754874e-07 8.1778055e-08
000040 72 7a 98 32 0e 88 93 37 8c 24 8f b6 36 2a 66 35
       1.775081e-08 1.7587121e-05 -4.2659867e-06 8.57431e-07
000050 6f 35 90 b0 32 52 2d b7 47 62 77 b7 ba f2 10 37
       -1.0492566e-09 -1.0330741e-05 -1.4745229e-05 8.639583e-06
000060 a8 47 87 36 4d 9e 24 38 a1 d0 f6 b6 0a bc 80 b5
       4.0316554e-06 3.9248076e-05 -7.355659e-06 -9.59147e-07
000070 9b 38 30 b6 7c 8e 2d b7 77 51 99 36 3d d8 31 37
       -2.6258992e-06 -1.0344778e-05 4.569239e-06 1.0600369e-05
000080 24 3b 34 b7 92 44 61 b8 50 97 1d b4 dd 42 2c 37
       -1.0742606e-05 -5.370804e-05 -1.4676812e-07 1.0267567e-05
000090 c9 45 8a b6 02 4d 3c 36 52 56 05 37 b1 ae 74 32
       -4.1208446e-06 2.8059007e-06 7.947516e-06 1.42423895e-08
0000a0 eb ac 25 bd 18 7e 8a 3b 75 61 31 3d bb 9d fd b4
       -0.04044811 0.0042264573 0.043305833 -4.7239686e-07
0000b0 44 f7 08 3d fd c6 1f bd 68 ab a9 b4 0a 7c 4b 3b
       0.033438936 -0.03900813 -3.1603417e-07 0.0031049275
0000c0 2f 0d 43 b6 6f c5 9a 3b fe 2f 11 3d a9 0c c0 3a
       -2.9064938e-06 0.004723243 0.03544616 0.001465221
0000d0 58 e8 87 b3 c6 9c 1f bd bd 56 80 bb 70 dd 4f bd
       -6.3286905e-08 -0.03896787 -0.00391659 -0.05074829
0000e0 61 3f 88 b5 8a 86 93 3c 23 00 20 3d 78 8f 1b 3d
       -1.0151235e-06 0.01800849 0.03906263 0.03797862
0000f0 fb 4d f6 33 54 c0 49 3d 6d 01 fa ba 33 b2 32 3a
       1.1469452e-07 0.049255684 -0.0019073911 0.0006816715
000100 80 e1 1d 3d 9e 2d 0d ba 10 f7 27 3d 51 8c 1e bd
       0.03854513 -0.00053855206 0.0410071 -0.038708035
000110 15 13 76 bd ac 97 03 bd f2 49 89 3b e0 c0 d7 39
       -0.06007679 -0.032127067 0.004189723 0.000411517
000120 0f 9b 32 bb 07 cf 74 3b 70 85 13 bd c7 3e 88 3b
       -0.0027253067 0.0037354843 -0.036015928 0.0041578743
000130 f0 02 20 3d 4b a5 1f bd ae 01 7c bd 9f 8f bd b5
       0.0390653 -0.038975995 -0.06152504 -1.4123397e-06
000140 8e 44 5e 35 e6 ab 21 b6 1f ac b4 35 e2 e9 31 31
       8.2801205e-07 -2.4090928e-06 1.3461139e-06 2.5889837e-09
000150 9c 6e 42 37 62 d3 02 35 6e b3 fd 2f 6b 5a d6 b6
       1.1589054e-05 4.8736376e-07 4.6147924e-10 -6.388223e-06
000160 ac 54 a3 31 48 67 2b b6 7b 80 0a 37 f2 2e 54 b7
       4.7535504e-09 -2.5541103e-06 8.255355e-06 -1.2647115e-05
000170 ea bd fe 2f 89 cc 03 35 14 12 bc 36 36 43 b2 35
       4.6337273e-10 4.909894e-07 5.604941e-06 1.3281594e-06
000180 a4 04 3c b2 48 a5 a6 b6 78 ef 10 b4 6b 3a 18 b6
       -1.0944095e-08 -4.966427e-06 -1.3498163e-07 -2.2683769e-06
000190 af ea f8 2f 51 6b 99 35 00 a6 8c 36 ed f8 2f b7
       4.527769e-10 1.1430621e-06 4.19165e-06 -1.048877e-05
0001a0 2c 09 52 b6 9e b5 65 b7 0c 77 ac 36 a9 4c 24 36
       -3.1297777e-06 -1.369175e-05 5.1398583e-06 2.4482526e-06
0001b0 b2 b2 df 36 ba 7e 7b 32 f8 a0 b6 b5 59 a8 4d b7
       6.6667208e-06 1.4638937e-08 -1.3606905e-06 -1.2258149e-05
0001c0 94 ac 06 37 49 71 9a 37 25 db 26 b7 b3 92 f4 b6
       8.027204e-06 1.8410983e-05 -9.945395e-06 -7.2888447e-06
0001d0 79 bd 27 b4 f5 b7 3c 35 1a 34 ca b4 62 8d 34 b2
       -1.5622017e-07 7.030315e-07 -3.766334e-07 -1.0509526e-08
0001e0 d2 6a a4 3d bb 49 21 bc 65 6f aa bd 3d ea 24 37
       0.08028187 -0.009844239 -0.08322028 9.8297e-06
0001f0 ae d6 a6 3d b5 dc e9 3d 7e e3 13 b6 d4 22 96 bc
       0.08146416 0.1141905 -2.2037125e-06 -0.018327154
000200 a5 eb 9d 36 1d bb fb 3c b0 91 c8 bd b4 a9 21 bb
       4.7063972e-06 0.030728871 -0.09793413 -0.0024667801
000210 20 66 86 34 b7 c4 08 3e 88 58 e4 bd e4 46 ad 3c
       2.503375e-07 0.13356291 -0.111496985 0.021151967
000220 2d ab 8f 35 c1 51 59 3d ef 7e 0c be 0b bf 84 bd
       1.0704149e-06 0.053056482 -0.13720296 -0.06481751
000230 e0 98 88 b5 23 28 70 be 75 73 7a ba 7a ff 14 3c
       -1.0177282e-06 -0.23452811 -0.00095539476 0.0090941135
000240 0f a2 8b bc 4f 6b 4f 3e 48 64 fb bd c6 95 95 3d
       -0.017045049 0.20255779 -0.122749865 0.07303958
000250 fc 19 a6 3c cb 10 0e 3d 53 de b8 bd 64 b3 b5 bb
       0.020276062 0.034683984 -0.0902678 -0.0055450667
000260 36 72 84 3c 98 af 57 3d 6b 5b f2 3d e4 49 5a 3e
       0.016167741 0.052657694 0.11833843 0.2131725
000270 de f4 28 be 60 3a 00 3e 0a 74 21 3e b0 f1 b8 36
       -0.1649966 0.12522268 0.15766922 5.5117634e-06
000280 78 c9 20 3e ae ae 97 bd 8f e1 45 be 60 15 57 b6
       0.15701854 -0.074063644 -0.19324325 -3.2049938e-06
000290 34 26 99 bd 75 67 92 3d 72 df 96 36 96 bb 73 bc
       -0.0747799 0.07148639 4.496361e-06 -0.014876267
0002a0 2b 33 0a 36 ec 4b 9d 3c 56 44 17 be 01 b8 68 bc
       2.0593386e-06 0.019201241 -0.14772162 -0.014204026
0002b0 39 e7 8a 35 85 27 76 3b f8 ed 57 be c9 3f d2 3d
       1.0349096e-06 0.0037560177 -0.21086872 0.10266072
0002c0 a7 51 73 b7 2c 3d 84 bd 75 b3 67 be 6b dd da bc
       -1.450294e-05 -0.0645698 -0.22627051 -0.026716908
0002d0 0b ce 1e 36 ed 0a 33 bd 5d 32 9c 3d e9 2d 02 3e
       2.3663767e-06 -0.04371159 0.076267935 0.12712826
0002e0 f5 80 b4 3c 32 e8 da 3c 70 da 59 3b 1c c2 db bb
       0.022034148 0.026722047 0.003324177 -0.0067064893
0002f0 fc 9c ed 3d d6 5c 1b 3d 24 0d 14 bd 16 67 fd 3c
       0.11602208 0.037930332 -0.036145344 0.030932944
000300 69 fc b7 bc ef 2e 15 3e 5e f9 ab 3d 5a 57 ad bd
       -0.022459226 0.14568685 0.083971724 -0.084639266
000310 ae 87 44 be 1b 2b 3a 3e ff 60 59 bd 38 c7 a1 b7
       -0.19192383 0.18180506 -0.05307102 -1.9285464e-05
000320 43 12 27 3d 00 f1 8b bb 29 68 30 bd 1d 41 00 35
       0.0407889 -0.004270673 -0.043068085 4.777847e-07
000330 39 92 08 bd 9e 19 20 3d 1a 12 ab 34 81 20 4c bb
       -0.033342574 0.03908693 3.1864403e-07 -0.0031147304
000340 9b dc 44 36 4b fa 9b bb b9 08 11 bd f1 ed c0 ba
       2.9334685e-06 -0.004760062 -0.03540871 -0.001471935
000350 17 0a 87 33 62 07 20 3d 1a aa 79 3b 1f 9a 52 3d
       6.288263e-08 0.03906954 0.0038095773 0.051416513
000360 0f 73 89 35 f9 fe 95 bc 62 71 20 bd 33 fe 1b bd
       1.0240782e-06 -0.018310057 -0.03917063 -0.03808422
000370 48 b2 f8 b3 36 a3 4b bd 4d 5d 03 3b 8b 33 33 ba
       -1.1580829e-07 -0.049716197 0.0020044625 -0.00068359886
000380 10 43 1e bd 3d c2 16 3a 6a c7 26 bd ec f7 1e 3d
       -0.038638175 0.00057509897 -0.04071752 0.038810655
000390 5b 69 6c 3d dc 5f 0a 3d 02 69 8a bb d2 c5 d6 b9
       0.057717662 0.033782825 -0.0042239437 -0.00040964648
0003a0 27 55 33 3b 0a 8f 4d bb 19 63 12 3d e9 6c 86 bb
       0.0027363987 -0.0031365776 0.03573904 -0.0041023386
0003b0 57 4f 20 bd 80 fd 1f 3d e0 22 81 3d 00 78 bf 35
       -0.039138164 0.039060116 0.0630548 1.4265534e-06
0003c0 b1 9e c4 bd 09 42 71 bc 8e 10 4d 3e 68 c1 38 b4
       -0.096005805 -0.014725217 0.20025846 -1.7206696e-07
0003d0 33 2d 27 3d d9 5d 18 be 4d f8 2b 34 2d 4a 3d 3d
       0.04081459 -0.1487955 1.6015947e-07 0.046213318
0003e0 5c 10 a1 36 2d c2 d0 bc 7c 36 22 3e 46 17 8e bc
       4.8000784e-06 -0.025483215 0.15841097 -0.017345082
0003f0 50 ee e7 b5 01 ce e0 bd 35 31 ff 3d 40 74 7f 3d
       -1.7280199e-06 -0.10976792 0.12460557 0.062366724

net.3.bias f4 [40]
000000 ff 42 9b 36 bb 3a 20 bd 00 93 4e b3 cd ff ed 3d
       4.6271593e-06 -0.03911851 -4.809681e-08 0.11621056
000010 bb 81 59 3e 6a 97 20 3d de 60 9b bd 23 3b 75 bd
       0.21240894 0.0392069 -0.07586835 -0.05987085
000020 f6 12 93 be 8f d6 19 be 33 a2 08 be fb d7 d9 34
       -0.28725404 -0.15023254 -0.13343124 4.0576546e-07
000030 61 d1 c3 bd 13 e3 93 3e 6b ba d2 35 ce ed bb 35
       -0.0956142 0.2888418 1.5700474e-06 1.4001796e-06
000040 8a cf 5c be 34 0b 20 3d 3d f0 8d b4 2e 55 0d bd
       -0.21563545 0.039073184 -2.6438093e-07 -0.03450506
000050 8b 3a 3c b5 96 20 53 bd 87 99 fa 35 c4 8e c3 b4
       -7.012065e-07 -0.05154475 1.8671134e-06 -3.6425456e-07
000060 6f 97 f0 3d 13 3c 6e be 45 66 9f 3d c5 8a 72 b5
       0.11747634 -0.23265104 0.07783178 -9.035396e-07
000070 43 84 20 bd ae e2 33 be e9 b6 d0 3d 6e c9 9b 35
       -0.039188635 -0.1756694 0.10191137 1.1607024e-06
000080 d0 40 fe b4 f8 31 a8 3c bf b8 d1 bd 99 b4 16 be
       -4.7358344e-07 0.02053164 -0.10240316 -0.1471733
000090 ec ae af b3 6c 7e 47 3e 9b cb 94 be 46 b4 a4 be
       -8.1808906e-08 0.1948182 -0.2906159 -0.32168788

net.4.weight f4 [1, 40]
000000 cf cd 6b 33 ad 23 71 3a 99 e2 ce b2 a6 e0 2f be
       5.4902383e-08 0.00091987365 -2.4084601e-08 -0.1717554
000010 1f 46 2b be f7 d8 77 ba 90 6e 16 3e fb 9c 0b 3e
       -0.16725968 -0.00094546325 0.14690614 0.13634102
000020 1a cc 2a 3e d3 25 85 3e 3c 1d 34 3e b9 5b 98 b2
       0.16679421 0.2600542 0.17589277 -1.773684e-08
000030 bd 21 e7 3d 0e 3b 88 be 45 8b 92 b4 3e 97 4d b2
       0.11285732 -0.26607555 -2.729595e-07 -1.1966959e-08
000040 c6 74 2d 3e d3 55 70 ba 12 45 d7 b2 54 ba 42 3a
       0.16939077 -0.0009168062 -2.5060704e-08 0.0007428278
000050 05 db 7f 31 9c 23 44 3e 14 99 df b2 c4 f3 0d b3
       3.7231882e-09 0.19154209 -2.6030229e-08 -3.3050824e-08
000060 24 ef 35 bd ab ef d8 3d e8 30 23 be 12 de 0e 33
       -0.044417515 0.10592588 -0.15936625 3.3263923e-08
000070 d7 5b 71 3a 71 04 ab bd f2 8d 88 bc 7f 68 40 b4
       0.00092071056 -0.083504565 -0.016669247 -1.7919409e-07
000080 67 a8 dd b2 85 3c c2 bd 28 1d e9 3d 4c 06 54 3e
       -2.5804367e-08 -0.094841994 0.11382514 0.20705527
000090 c8 f4 fc 31 30 88 ab bd d4 0b 80 3e 63 5e 95 3e
       7.3619937e-09 -0.08375585 0.25009024 0.29173574
