Models/best_model_A_eps_0.02.pth (torch, 20561 bytes, 7 tensors)

net.0.weight f4 [60, 1]
000000 f2 fe e9 bf 53 e1 fe be e2 dc 57 bf 0b 99 24 bf
       -1.8280928 -0.49781284 -0.84321415 -0.64296025
000010 4e 59 dc bf 6c fc 82 3f d0 ae 80 bf 43 86 e5 3e
       -1.7214754 1.0233283 -1.0053349 0.44828996
000020 58 11 35 3f 71 ae 94 bf 98 63 ab 3f af ec e2 3e
       0.7072959 -1.1615735 1.3389769 0.443212
000030 46 f2 80 3f d9 d7 a2 3f c1 86 4e bf 5b 64 27 3f
       1.0073936 1.2722121 -0.8067437 0.65387505
000040 96 8b aa bf 41 77 9b 3f 8e de 62 bf 26 2a 68 3f
       -1.3323848 1.2145768 -0.8862084 0.90689313
000050 93 1d 1f 3f cf e3 6d bf dd b9 92 bf cb b0 4d 3f
       0.621545 -0.92925733 -1.1462971 0.8034789
000060 e2 51 91 3f c7 df 8a 3f 56 15 e7 be 17 68 25 be
       1.1353114 1.0849541 -0.45133466 -0.16152988
000070 f6 e5 60 3f 51 7d 46 bf 87 18 89 3f 5c bb 57 bf
       0.8785089 -0.7753497 1.071061 -0.8427026
000080 e0 72 78 3f 8c c6 66 bf 91 f8 79 be 53 26 56 3f
       0.97050285 -0.9014671 -0.24411227 0.8365223
000090 62 2a bb 3f 9b 3f 20 bf a8 36 ce 3f 4d b7 ee bf
       1.4622309 -0.62597054 1.611043 -1.8649689
0000a0 45 bd 08 bf d6 68 c8 bf 7c 25 ea 3e 32 1a 0c 3f
       -0.534138 -1.5656993 0.45731723 0.5472747
0000b0 91 ac 50 bf 97 4c 9c 3f 53 75 ff be 18 87 cf bf
       -0.81513315 1.2210873 -0.498942 -1.6213102
0000c0 d3 d6 8c 3f 2b dd 8d 3f 43 17 a4 3f 5b 48 84 3f
       1.1003059 1.108312 1.2819599 1.0334581
0000d0 bd 89 30 3f e1 f0 9b 3f cc e9 a6 3f b1 e0 1e bf
       0.6896017 1.2182885 1.3040099 -0.620616
0000e0 26 db ec bf 70 15 a0 bf 54 d0 05 bf 92 b5 82 bf
       -1.8504379 -1.2506542 -0.5227101 -1.0211661

net.0.bias f4 [60]
000000 c1 6e bc 3d 94 bc 23 3f 6e ff 00 3f 16 98 1b bf
       0.09200812 0.6395962 0.50389755 -0.6077894
000010 50 b4 9f bd 3a 72 a0 be 35 52 69 3f 7d 31 7c be
       -0.07798064 -0.31337148 0.9114106 -0.24628253
000020 6c 35 04 bf 8b d7 1d bc 3c 21 8d be 8d a8 d3 be
       -0.51644015 -0.009633909 -0.27564418 -0.41339532
000030 eb 77 76 bf 99 d3 07 3f 20 32 38 3f 76 3f 15 bf
       -0.9627673 0.5305725 0.71951485 -0.5829996
000040 67 d1 8d be 28 dd f0 bd 5e b1 26 3f 4c 1c 50 bf
       -0.27698824 -0.11760932 0.6511439 -0.8129318
000050 f5 93 07 bf 16 b5 06 3f 96 f5 c7 be cd 95 8a be
       -0.5296014 0.52620065 -0.39054555 -0.27067414
000060 94 8c 72 bf e1 5a 1b 3f a4 39 0b 3f c0 a9 55 bf
       -0.94745755 0.60685545 0.5438483 -0.8346214
000070 c4 2a 30 bf 93 74 1b 3f 73 48 05 be b6 f8 b0 3e
       -0.68815255 0.60724753 -0.13015918 0.3456475
000080 89 bc 67 bf 60 70 d9 be 9b 97 ba 3e 4a 2a 49 bf
       -0.90522057 -0.42468548 0.3644379 -0.78580153
000090 62 7e 86 be ff 0f 05 3f 73 e9 8a 3e 71 54 1f 3e
       -0.26268297 0.51977533 0.27131233 0.15559556
0000a0 81 18 f3 3e a3 a1 07 3f fd 69 9a be 6e 84 f8 be
       0.47479632 0.52981013 -0.30158988 -0.48538536
0000b0 22 d2 50 3f ef 76 15 3f e2 62 0d 3f 7f 3c 6c be
       0.8157064 0.58384603 0.5522901 -0.23069952
0000c0 81 02 81 bf 14 b2 7c bf ee d1 04 be ed fb 1b bf
       -1.0078889 -0.98709226 -0.12970707 -0.60931283
0000d0 0f 59 db be 06 c4 8c be 6d b6 3d 3f a1 5e 6f 3f
       -0.42841384 -0.27493304 0.74106485 0.9350377
0000e0 52 99 5f 3d 31 28 3f be 9d c1 07 3f 4e 59 90 3d
       0.054589577 -0.18667676 0.53029805 0.070482835

net.1.weight f4 [40, 60]
000000 63 bb 41 be 3f f4 9b 3d d7 28 fe 3d 27 25 31 be
       -0.18919139 0.076149456 0.12410133 -0.17299329
000010 6d 10 ec bd 0c 86 8f 3d f6 a7 b1 bd 7f 4d 17 be
       -0.115265705 0.07007989 -0.08674614 -0.14775656
000020 1e 9e b2 3d f4 f6 e9 bd 2b 94 0a 3e 7b 63 e8 bb
       0.08721565 -0.11424056 0.13533084 -0.007091937
000030 3b 36 b3 ba 37 3f d7 3c f5 0d 0e bc 17 e4 87 3d
       -0.0013672778 0.02627526 -0.00867032 0.066353016
000040 5d 11 06 bd df 36 22 3d 68 02 f8 3c 4a f5 97 3d
       -0.032731403 0.03960311 0.030274585 0.07419832
000050 bd 69 04 be e0 75 ab 3d 6a d6 05 be 5f 86 35 3c
       -0.12930961 0.08372092 -0.13070074 0.0110794
000060 fe a5 37 3d 85 1b 85 bc 3e de 99 3c 64 c3 88 3d
       0.044836037 -0.016248474 0.018782731 0.06677893
000070 58 f4 01 3d 54 90 3a bd 09 c4 36 3d cd 5b ae 3d
       0.031727165 -0.0455478 0.044620547 0.08513603
000080 71 3b ab 3c c8 93 3c 3c 48 ab dd bc e7 06 06 3c
       0.020902367 0.011509843 -0.027059212 0.008180357
000090 7b 24 b6 3d 9b a8 39 3d 12 0f 6e 3e 6c bb 74 3b
       0.08893677 0.04532681 0.23247936 0.0037343157
0000a0 11 f2 d5 3d 55 0d ca 3c c3 2d 47 3d 4b 2f 0b bd
       0.10446561 0.02466456 0.048627626 -0.03398065
0000b0 f1 90 ac bd c4 2f bb bc 6d 04 54 bd 83 4f 3c be
       -0.08426083 -0.022849925 -0.051762033 -0.18389706
0000c0 65 e3 0f 3d fe 97 19 3c f5 94 1a 3d fd 60 bf bd
       0.03512897 0.009374617 0.037739713 -0.09344671
0000d0 72 21 02 3e 61 b8 22 3e cd 34 46 3e b2 44 2e 3e
       0.12708071 0.15890647 0.1935608 0.17018393
0000e0 a4 17 11 be d7 61 16 be 75 8b 3a bd cf 17 9c bd
       -0.14169174 -0.1468576 -0.045543153 -0.07621729
0000f0 c4 1f 03 be 62 11 ba 3d 78 57 51 bc 29 97 76 3d
       -0.12805086 0.09085347 -0.012777202 0.06020275
000100 22 56 c4 bd 93 e8 18 bb e8 b4 ca 3b a6 64 7c 3b
       -0.09586741 -0.0023331984 0.0061861165 0.003851214
000110 35 8e 08 3e 1a ed 84 bd fa f0 55 3d 20 c9 8d bd
       0.13335498 -0.06490536 0.052231766 -0.06923127
000120 d8 b1 f8 bc 0c 75 92 3b ec 54 6c 3d 99 d7 c7 3d
       -0.03035824 0.0044695195 0.057698175 0.09757919
000130 5b f5 44 3c 19 c5 25 bc 1a 1a 05 bd cf d1 be 3d
       0.012021388 -0.0101177925 -0.032495596 0.093173616
000140 96 8b ab bc 06 cb a7 3d 9a 83 a0 bd 0b 64 ec 3d
       -0.020940583 0.081930205 -0.07837601 0.11542519
000150 fe e3 08 3e 3a a5 ec 3d 79 26 62 3d 9b 04 a5 3d
       0.13368222 0.11554952 0.05521247 0.08057519
000160 13 f4 7f bd a7 50 55 bc a3 4f 43 3d c0 b4 3a bd
       -0.062488627 -0.013019717 0.04768337 -0.045582533
000170 79 76 54 3c 10 af 8a 3d 57 24 12 be f0 62 f9 bd
       0.012967699 0.06771672 -0.14271675 -0.12177074
000180 c4 fe 77 bd 72 16 53 bb 8a ba 55 3c a9 b2 3b 3c
       -0.060545698 -0.0032209423 0.013044963 0.01145617
000190 32 76 32 bd 00 81 db bd 36 1a 04 3d dd ee ca 3d
       -0.04356975 -0.10717964 0.03225156 0.09908841
0001a0 4d 34 94 bd cc 17 0e 3e d6 d8 9d 3c 9d 1a c8 3d
       -0.07236538 0.13876265 0.019268434 0.09770701
0001b0 8b 99 00 be ed 46 0f be 84 cb 62 3d 26 e4 d1 bd
       -0.12558572 -0.139919 0.05536987 -0.10248594
0001c0 2c 46 b3 bd 1c 6a a1 3d 04 f8 f5 3d ac 20 f9 bd
       -0.087536186 0.07881567 0.12010196 -0.12164435
0001d0 d4 3f 96 3d e4 b8 1e bd 52 81 a2 3d bd 0e 78 bd
       0.07336393 -0.038750544 0.07934822 -0.06056093
0001e0 96 2f 19 be 93 08 f7 bd 37 64 3c be ef ef 1f be
       -0.14959559 -0.12062182 -0.18397604 -0.15618871
0001f0 91 16 92 bc bd ae 60 3d c0 07 0b be f8 d1 fd 3d
       -0.017833026 0.054854143 -0.13577175 0.12393564
000200 80 90 1f 3e de 17 2a be 9b 0d 14 3e 8d 36 44 3c
       0.15582466 -0.16610667 0.14458315 0.011975897
000210 96 e2 5f 3e 0b 0d e9 3d 19 dc 2e be fb f7 0a 3e
       0.2186378 0.11379441 -0.17076148 0.1357116
000220 c2 b6 75 3d 3e 2e 4d 3d 86 0f 86 be f0 81 49 3e
       0.059988745 0.050092928 -0.26183718 0.19678473
000230 de 6b 41 3e 62 ed 75 be 1b 56 bf bd b3 b1 e7 3d
       0.18888804 -0.24016336 -0.09342595 0.1131319
000240 2e 5e 14 3e 00 29 70 bd 0b a3 b1 bc 0f 1c f8 bd
       0.14489052 -0.05863285 -0.02168419 -0.12114727
000250 27 a0 b6 3d 26 e8 0c be 93 2c 92 3c 76 03 62 bd
       0.089172654 -0.13760433 0.01784352 -0.05517908
000260 79 d8 2a 3e 11 a7 c5 3d 39 e3 07 3e f1 d0 0b 3e
       0.1668414 0.09651006 0.13270272 0.13653924
000270 7e d1 11 3c a8 17 00 bd 85 b6 f4 bb 59 ba 8d 3d
       0.0089000445 -0.03127256 -0.007468047 0.069203086
000280 4c 56 11 be 06 a3 52 3c 7f 3d 35 3e ce 79 ab 3d
       -0.14193076 0.012856251 0.1769924 0.08372842
000290 8d 2c 3b be 06 b7 d8 3d db e8 10 bd 3e 23 2c 3d
       -0.18278714 0.10581784 -0.03537832 0.042025797
0002a0 9c 71 3c 3e 7b 78 1b 3e ef 22 89 bc 02 a7 ef 3d
       0.18402714 0.15182678 -0.01674029 0.11701776
0002b0 e3 91 23 3e 87 ef 25 3e 57 0c e7 bc 46 4b 3f bd
       0.1597362 0.16204654 -0.028204126 -0.046702646
0002c0 ca 02 09 bd 37 82 5d 3b 48 b3 23 3d ac db 86 3c
       -0.033449925 0.0033799538 0.039965898 0.01646217
0002d0 8f a5 04 3e 62 46 ee bc d5 c7 c9 3d 77 68 29 3e
       0.1295378 -0.029086296 0.09852568 0.16543756
0002e0 6c fc 47 3e be 68 37 3d 8b fa 94 3c df 82 8a bc
       0.19529885 0.044777624 0.018185874 -0.016908107
0002f0 a9 58 a3 3d e7 7c 46 3e 62 42 e1 bd 6c af ba 3c
       0.07975895 0.19383584 -0.1099899 0.022788726
000300 00 72 40 3e cd 4b 18 be 4b ab 18 be 1f 90 f6 3d
       0.18793488 -0.14872666 -0.14909093 0.12039208
000310 51 bb 55 3e 02 6e a4 bd f8 e5 29 bd b4 70 da 3d
       0.20872237 -0.08028795 -0.04147908 0.10666028
000320 4a 73 90 3d a8 e8 c0 3d 03 64 6b 3e e4 62 b0 bd
       0.0705324 0.09419376 0.2298737 -0.08612612
000330 61 4f e9 3d 79 26 26 be 83 b3 18 3d 8d cd d6 3c
       0.113920934 -0.16225614 0.03728057 0.026221061
000340 25 b4 3c ba 95 f4 b9 3d 12 22 d0 bd d7 28 d7 3c
       -0.00071984745 0.090798534 -0.101627484 0.026264591
000350 88 96 97 3d 87 db 11 3e 46 1d 50 bd 8f 45 68 bd
       0.074017584 0.142439 -0.050809167 -0.05670696
000360 f9 4c 5a 3d db 47 bc 3d cc 5c 9f be 7c 9c 1b 3e
       0.053296063 0.09193393 -0.31125486 0.15196413
000370 12 7e 99 3d 99 8e 11 3d 98 89 8e 3d 70 9b 01 3e
       0.07494749 0.035536382 0.06959838 0.12656951
000380 7d 07 76 bb 9e 6b 3a be a0 34 18 be b7 7e 20 3e
       -0.0037541084 -0.18205115 -0.14863825 0.15673338
000390 8a e1 87 bc c2 16 8e 3d c9 06 5e be f3 65 d2 3d
       -0.016587038 0.069379345 -0.21682276 0.102733515
0003a0 2d e4 2a 3d 5a 22 f0 bd 13 87 8e be 74 8b 90 bc
       0.04172151 -0.11725302 -0.27837428 -0.017644621
0003b0 2e aa 08 3e ab af 5a 3e 28 72 db bc 09 08 45 3e
       0.13346168 0.21356075 -0.026787832 0.19241346
0003c0 c7 3b a6 3d 0e 68 4f bd 25 33 fe 3c 92 f8 24 3e
       0.081168704 -0.050636344 0.031030247 0.16110447
0003d0 08 5a 26 3c e8 fb 9b bd 1c e7 9c bc 19 88 e3 bd
       0.010153301 -0.07616407 -0.01915317 -0.11109943
0003e0 0c 87 31 bc aa ab 09 3e 97 48 ed 3c fc fa 96 3d
       -0.01083542 0.13444391 0.028965278 0.0737209
0003f0 a7 5c ea 3d e1 a9 4e be 93 e6 a1 bd 68 b6 14 3c
       0.11443453 -0.20181991 -0.07905307 0.009076692

net.1.bias f4 [40]
000000 3b 53 30 3e 13 77 d7 bd d0 b0 ac 3d 8b 0a b2 bd
       0.1721925 -0.105207585 0.08432162 -0.08693417
000010 b8 ec d1 bd a2 21 18 3e 81 a4 b8 bd e7 8d 4b bd
       -0.10250229 0.1485658 -0.09015752 -0.049695875
000020 e2 09 c1 3d 81 36 bd bd da 8b ea bc e0 6c ce bd
       0.09425713 -0.092389114 -0.02863114 -0.1007936
000030 5b 08 5c be 4f 5d db 3c 0b 1c 03 3e 5c fa 81 bc
       -0.21487562 0.026777891 0.12803666 -0.015866451
000040 26 1f 36 bd 33 ac 09 bd 6c c0 5a be 8f 55 5b 3d
       -0.0444633 -0.033611488 -0.21362466 0.053548392
000050 8a d0 a6 3d 2c cf e0 bd ed cc 71 bd 51 2c eb 3c
       0.081452444 -0.10977015 -0.059033323 0.028707655
000060 52 3b 01 be d0 54 39 bb f6 b0 e8 3d 83 e0 f9 3d
       -0.12620285 -0.0028279312 0.113618776 0.12201025
000070 c1 63 cc bd c8 0a 8b 3c 0f 91 70 3d 23 47 79 bd
       -0.09979964 0.016972914 0.05873209 -0.060858857
000080 dc e9 0b 3e 06 1c b1 bd 9e 67 3c 3e fe 02 c9 3c
       0.13663429 -0.08647923 0.18398902 0.02453756
000090 ce 0f 1d bc 6e 5b 88 bd 2f b5 54 3d ae e2 dc 3d
       -0.009586288 -0.06658064 0.051930603 0.10785423

net.2.weight f4 [40, 40]
000000 08 28 c8 bd 45 c0 8c 3d 32 95 03 3e e4 84 ca 3c
       -0.0977326 0.0687261 0.12849882 0.02472157
000010 91 aa 0d 3e 95 a9 d7 bd 98 34 8d 3d dd a4 af bd
       0.13834597 -0.10530392 0.06894797 -0.08576367
000020 8a 03 f2 bb c1 14 eb 3d 1a 1e d8 bd f6 69 f8 bc
       -0.007385676 0.11478568 -0.105526164 -0.030323964
000030 ab 2e c3 3d a8 50 75 be 47 c0 5f be 5d d9 e3 bd
       0.095303856 -0.23956549 -0.21850692 -0.11125443
000040 d3 e1 bc 3d 80 e4 78 3e fe 66 05 3e da f1 9a 3c
       0.0922276 0.24305916 0.1302757 0.018914152
000050 b0 bd 59 be f5 3f f9 3d fd 34 2d 3e f6 9b 2d 3d
       -0.21263766 0.12170402 0.16914745 0.042385064
000060 ae bb 1d 3d 35 34 22 3e 8e ca 20 be 62 f3 5e 3e
       0.038509063 0.15840228 -0.15702268 0.2177253
000070 7b c4 a0 3b d3 bf 9e bd 34 15 03 bd 3b 9b 61 be
       0.004906235 -0.07751431 -0.032002643 -0.22031872
000080 e9 a9 30 bc d3 bf 8a bb 46 cb 86 3e 86 5f 96 3d
       -0.010782697 -0.004234293 0.2632696 0.073424384
000090 e6 45 17 bd c9 36 24 3e 3d e4 5c be 41 c3 62 3e
       -0.036931895 0.16036524 -0.21571441 0.22144796
0000a0 1b cf 16 be 0c 3f 1e bd 74 ad 95 be 37 28 99 3c
       -0.14727442 -0.038634345 -0.29233897 0.018695934
0000b0 9f 21 d9 3d da a5 e5 bc 7f 33 e1 3d ac 06 fd 3d
       0.10602116 -0.028033186 0.1099615 0.12354788
0000c0 88 00 fc bd 84 3a e0 3c 66 9f 93 bc 36 f6 4a 3c
       -0.12304789 0.027371652 -0.018020343 0.012387803
0000d0 3f b8 ac 3c 8e cc f0 bc 45 7e 16 be 11 5b c9 bd
       0.02108395 -0.029394414 -0.14696606 -0.09831823
0000e0 49 be 21 3e a6 ae 21 bd 11 b0 0b bf c3 21 21 3b
       0.15795244 -0.0394732 -0.5456553 0.0024586774
0000f0 e6 b4 06 be 6a a6 de be 71 e4 67 bd 5c 96 4c 3e
       -0.13154945 -0.4348634 -0.056614343 0.19979233
000100 b0 7a cc 3b 55 28 dc bd 04 8c 74 be df c3 09 bd
       0.0062402114 -0.1074988 -0.23881537 -0.033634063
000110 d0 d3 97 bc 98 ed c3 bc 0f ab b2 bd 0e 4e c7 3d
       -0.018533617 -0.023917004 -0.08724033 0.097316846
000120 37 a4 81 3d 0a 51 8f 3d 61 4e a4 bd a9 51 f2 bc
       0.063301496 0.06997879 -0.08022762 -0.029579954
000130 6c 09 5e 3d 30 e8 ed 3d d2 90 1f bd 53 83 7b 3c
       0.054208204 0.11616552 -0.03895647 0.015351134
000140 3f db f9 bd f2 5f 4a bd 67 67 42 3e b6 5b 93 3e
       -0.12200021 -0.049407907 0.18984757 0.28780907
000150 68 85 45 3e 06 b0 78 be 62 a9 81 3e 18 4b 85 be
       0.19289172 -0.24285898 0.2532454 -0.26033854
000160 00 02 b9 3c 2f 15 86 be 13 5b c1 be 21 9c 93 be
       0.022583961 -0.26188037 -0.37764797 -0.28830054
000170 7d 02 b6 3d ce ea 45 be 7b 03 7a bc 90 00 09 be
       0.08887193 -0.19327852 -0.015259619 -0.13379121
000180 e0 5e 75 bc 31 8c 24 3e 50 db 3f be 23 fc 56 3d
       -0.014976233 0.16069104 -0.18736005 0.05248655
000190 eb ad 8c be 37 cd de 3d c4 4a c0 3d 8b 49 96 3e
       -0.2747644 0.108789854 0.093892604 0.29352984
0001a0 12 fc 0f 3e 75 bb 6f be f0 43 cb bd 53 7d 39 3b
       0.14061001 -0.23411353 -0.099250674 0.0028303459
0001b0 1f c8 82 3d 5f 8a a6 bd 32 4d 37 bd bf 5f d1 bc
       0.06385826 -0.08131861 -0.044751354 -0.02555835
0001c0 49 62 bd 3d 7d fa 7e 3e 4f 8d 76 3e 36 6e c8 bc
       0.09247262 0.24900241 0.24077342 -0.024466615
0001d0 14 ad 74 bc 4f b2 bc 3d 69 b5 6c be c7 f3 f5 3d
       -0.014933843 0.09213697 -0.23116077 0.120093875
0001e0 c4 4f bc 3c d7 5e b6 bc b3 1b e9 be ae 25 d2 3c
       0.022987254 -0.02226202 -0.45528945 0.025652733
0001f0 dd 65 d3 bd 0f 8c 60 be 9b ae 4b 3e d2 71 0f be
       -0.10322163 -0.21928428 0.19890825 -0.14008263
000200 96 40 26 3e 9d fe 1c 3e 7c e4 e1 3c 05 36 9e 3d
       0.16235575 0.15331502 0.02757477 0.07725147
000210 0b 60 dc 3c 5c bb 89 bb 64 d1 d0 be 64 c4 0c 3d
       0.026901266 -0.004203243 -0.40784752 0.03436698
000220 bf 4a 2b 3e 20 25 52 3d 84 19 d2 be a9 96 fd 3c
       0.16727732 0.051304936 -0.41035092 0.03095563
000230 b8 05 2e be ae 16 20 bd d7 80 0e be c9 da e0 bb
       -0.16994369 -0.03908413 -0.13916336 -0.0068620187
000240 be a6 0f bc 82 73 15 3e a5 73 40 be fa 31 72 bd
       -0.008767782 0.14594844 -0.18794115 -0.059129693
000250 4b 04 67 ba 56 41 1d 3d c1 9b fd 3c 68 c4 c6 3d
       -0.00088125904 0.038392387 0.030958058 0.0970543
000260 07 60 63 3e 1c f3 51 bd ea 9d 84 bd d7 95 70 3e
       0.222046 -0.051257238 -0.06475432 0.2349466
000270 83 8f 61 3e 17 a6 8f 3e b8 c1 c0 bd d0 68 95 3e
       0.22027402 0.28056404 -0.09411949 0.29181528
000280 4a d4 cd 3c 14 a0 5e 3e 46 1a 91 bd b9 be 54 be
       0.025125641 0.21740752 -0.070850894 -0.2077588
000290 95 c1 26 be 81 54 37 bd 44 7d 84 be 3f 1f 15 3e
       -0.16284783 -0.044758324 -0.2587682 0.145627
0002a0 98 e0 b9 bd 2f ef 18 3d 9a 7e 8a 3e cb c2 28 3d
       -0.09076041 0.03733748 0.27049714 0.041201394
0002b0 2b 22 db 3d 7a 1a 40 3e 13 ab 77 bc 88 3e 56 3e
       0.106998764 0.187601 -0.015116471 0.20922291
0002c0 70 ed 00 3e b1 b7 de bd 4d 27 45 3b 24 11 a2 3c
       0.12590575 -0.1087488 0.003008324 0.019783564
0002d0 95 80 79 3e eb 7c e1 bd 8a e2 07 be 5f 0c e7 bd
       0.24365456 -0.11010154 -0.13270012 -0.112816565
0002e0 d3 40 d3 ba 48 07 22 bd 26 e6 42 3e d4 22 1a be
       -0.0016117342 -0.039557725 0.19033107 -0.15052348
0002f0 65 e8 a6 bd 45 67 04 3e e8 4f b3 bc 3e 25 86 3e
       -0.081497945 0.12930019 -0.021888688 0.2620029
000300 97 46 81 3d bd 71 8a 3d ca 56 29 be fc 3d 4d be
       0.06312292 0.06759975 -0.16537014 -0.20043176
000310 99 e4 8f 3d 69 a5 37 be 6f b5 c0 3c 4e 8c c3 bd
       0.070260234 -0.17934193 0.023524014 -0.09548245
000320 77 ad 26 3e 68 ba 09 3c db 64 12 bd 07 b3 d5 bd
       0.16277109 0.008406259 -0.035740715 -0.104345374
000330 7f ec da 3d 9c c5 b9 3d 2f 51 95 bd 08 e4 fd bd
       0.10689639 0.09070894 -0.07290875 -0.12397009
000340 d0 93 2b be 58 0a 99 bd db 21 5b 3d 6e f6 05 3e
       -0.16755605 -0.07472676 0.053499084 0.13082287
000350 f2 88 42 3d 93 f1 13 3e 00 0f 89 bd 97 5a 21 bd
       0.047493882 0.14447622 -0.06692314 -0.039393034
000360 71 e8 67 3d 06 75 7c bd 93 e9 80 bc bf 86 8e bf
       0.056618158 -0.06163504 -0.015736377 -1.1134871
000370 25 0f 2d 3d 07 d2 72 bd 0e af e9 3d da b4 16 be
       0.04225077 -0.05928233 0.11410342 -0.14717427
000380 bb 48 1f bb 62 59 98 be 9e e2 b4 bd 6e c9 2d be
       -0.0024304825 -0.29755694 -0.08832286 -0.1697137
000390 41 ca 56 3b c7 a6 2a 3e a1 3b 8e b9 63 e1 e5 3c
       0.0032774361 0.16665183 -0.00027128778 0.028061574
0003a0 ad 3b 14 bd 77 e5 f0 bd 32 61 90 3d 49 18 03 be
       -0.036189724 -0.11762517 0.070497885 -0.12802233
0003b0 36 38 48 3b 87 c1 e7 3c f5 f5 f4 3d 5f 2f b7 3c
       0.0030551082 0.028290523 0.11960975 0.022361455
0003c0 bc d5 d0 3d 3f 59 5d 3e 9b 79 11 bd 81 c7 a0 be
       0.101970166 0.21616076 -0.035516363 -0.3140221
0003d0 57 b1 86 be e4 29 cd 3d 1f 65 94 be 2f a2 a7 3e
       -0.26307175 0.10017756 -0.289834 0.32740924
0003e0 e3 c4 17 be fc 9c 4f 3e 2e 3f 2b 3d 6b 0f 42 3e
       -0.148212 0.20274729 0.0418083 0.18951194
0003f0 4e 1e f4 3d 29 4b 98 3e d2 19 c7 3d 29 c8 75 3d
       0.11919843 0.29744843 0.09721722 0.06000534

net.2.bias f4 [40]
000000 92 71 25 3e d4 ec bf bd 4e 8f 65 be 8f 18 1e bf
       0.16156605 -0.09371343 -0.22417948 -0.61756223
000010 88 c8 7b 3c 18 ab fd 3c da 64 0c 3e 40 fb 4e 3e
       0.015367635 0.030965373 0.13710347 0.20213032
000020 7b e0 08 be 70 a0 dd be 34 18 19 3e f7 71 92 3d
       -0.13366883 -0.43286467 0.14950639 0.07150643
000030 d8 25 23 3f 25 2f b8 bd a8 21 0b 3e a7 d7 28 3f
       0.6372962 -0.08993367 0.13587058 0.6595406
000040 8c 17 c3 3e f7 db 1b 3e 84 c5 7d 3e 18 56 1c bc
       0.38103902 0.15220629 0.24782377 -0.009542011
000050 ab f8 bf bd 4f 8d ae 3d a2 e6 df be e2 ac 3a bd
       -0.093736015 0.08523046 -0.43730646 -0.04557503
000060 f5 11 c9 be d9 75 d0 3e 86 42 ad 3e 12 7d a9 be
       -0.39271513 0.4071491 0.33839816 -0.33103234
000070 ee d0 88 3e ca 06 d2 bd 81 97 cd bd a1 f1 00 be
       0.267219 -0.10255201 -0.10038663 -0.12592174
000080 5a 7d c4 be 9f ee 6e be 84 f0 13 bf 2a da 26 3f
       -0.38376886 -0.23333214 -0.5778887 0.6517664
000090 a4 37 9c be fc bd 0c be 8e a2 b2 3d 9a 26 59 bd
       -0.305112 -0.13744348 0.08722411 -0.05301533

net.3.weight f4 [1, 40]
000000 9e 6e 70 bd 10 44 6a 3d e9 96 4c bc b4 b0 07 bd
       -0.058699243 0.057193816 -0.012487152 -0.0331275
000010 bf 40 e7 3c c8 f5 0c 3c 2e 72 27 3d 2c 09 8b bd
       0.028229116 0.008603521 0.040880375 -0.06788859
000020 bb f2 e5 bd 5b 05 ec bc 1b 34 15 3d 42 07 4b 3e
       -0.11227938 -0.028811147 0.036426645 0.19826987
000030 7b 5c 45 3c 67 c0 3d bd b7 5f 13 be 1d df af bc
       0.012045975 -0.046326067 -0.14391981 -0.021468693
000040 95 92 9b bd 96 a3 17 3d 67 9a fe 3b cd c6 7a 3e
       -0.07596318 0.037021242 0.007769871 0.24489899
000050 db c4 54 bd a0 1e 84 bc 3b df 41 bc ad 22 06 be
       -0.05194555 -0.016127884 -0.011833007 -0.13099165
000060 67 74 23 bc 9f 49 20 3d 80 d1 1a 3d 75 32 23 3d
       -0.009976483 0.03913271 0.03779745 0.03984304
000070 6a 73 01 3d fb 1b 60 be 62 16 c2 3c 9c 5f 46 bd
       0.031604208 -0.21885674 0.023692314 -0.048431024
000080 43 6e 9d bc 52 0d d3 3c 76 4c 8a 3d d6 39 cb 3c
       -0.019217616 0.025763188 0.06752865 0.024807852
000090 0b 19 50 3c 2d 0b 40 bd 71 38 9e 3d ed 46 1d 3e
       0.012701283 -0.046885658 0.07725609 0.15359087
