Models/best_model_A_eps_0.01.pth (torch, 20561 bytes, 7 tensors)

net.0.weight f4 [60, 1]
-2.1528702 -0.08279862 0.69373465 1.2422209 -1.0017629 -1.2313725 0.83357006 -1.9175227
-0.6302178 1.2619183 0.773292 1.7700375 2.6942468 2.7998877 0.84662277 1.6404226
1.7051544 -0.77535737 1.1085783 -0.9874856 -0.63122445 -1.0441258 0.4035202 0.11836272
0.9519298 2.3014207 0.5326629 -2.4552107 -0.86214846 -0.9393221 -0.9361046 0.04728602
-0.91965276 -1.6688727 1.5001998 1.0836278 2.225866 -2.764528 0.19151711 2.694226
0.295121 1.0517799 -0.94107604 -2.5612938 0.6471814 0.8062566 0.46382162 -0.94022614
0.94369286 0.63312566 -0.8672431 -0.61118895 -1.1677169 -0.9324365 0.710172 0.84904677
2.0443168 -1.7003242 0.68755955 0.98667115
00000000: a0c8 09c0 5392 a9bd 9898 313f 1801 9f3f
00000010: c439 80bf 9d9d 9dbf d964 553f 6271 f5bf
00000020: f455 21bf 8a86 a13f 77f6 453f 9790 e23f
00000030: 8a6e 2c40 5c31 3340 45bc 583f 5ef9 d13f
00000040: 8042 da3f d27d 46bf e5e5 8d3f dbcb 7cbf
00000050: ed97 21bf eaa5 85bf 339a ce3e 2768 f23d
00000060: acb1 733f 7a4a 1340 995c 083f 2c22 1dc0
00000070: c3b5 5cbf 6a77 70bf 8da4 6fbf fcae 413d
00000080: 5d6e 6bbf 9f9d d5bf 8c06 c03f 51b4 8a3f
00000090: 9774 0e40 07ee 30c0 101d 443e 336e 2c40
000000a0: 1a1a 973e b9a0 863f 5cea 70bf 3dec 23c0
000000b0: aead 253f d566 4e3f 077a ed3e a9b2 70bf
000000c0: db95 713f 8614 223f a503 5ebf e176 1cbf
000000d0: bf77 95bf 29b4 6ebf d5cd 353f 215b 593f
000000e0: 16d6 0240 39a4 d9bf e703 303f 7b96 7c3f

net.0.bias f4 [60]
0.13716958 0.21798731 0.10113908 -1.0905144 0.61424685 1.1020874 -0.58727306 0.10462826
0.48925543 -0.8401642 -0.644519 -0.23193276 -0.13354953 -0.21253437 -0.026132245 0.071194574
-0.21094699 0.66056305 -0.4625659 0.8870893 0.106725685 0.9303397 -0.6955753 -0.23490502
-0.89193344 -0.24519108 -0.54553103 0.15033509 0.54835117 0.8518318 -0.20954207 -0.02496472
0.8424983 0.14399873 0.10970826 -0.024937281 -0.17888327 0.26765254 -0.25311932 -0.27947736
-0.17158425 -0.9260225 0.8182266 0.16403882 -0.5511192 -0.81809765 -0.35196215 0.12464594
-0.5597594 -0.5543149 0.7920456 0.5334305 0.35522023 0.91923136 -0.55855817 -0.51037437
0.2698909 0.2253787 -0.60129887 -0.4695496
00000000: 2f76 0c3e 1138 5f3e 0222 cf3d fa95 8bbf
00000010: 483f 1d3f 3311 8d3f 8757 16bf 5747 d63d
00000020: b07f fa3e 0015 57bf 32ff 24bf c87f 6dbe
00000030: 35c1 08be 9ca2 59be 4a13 d6bc 76ce 913d
00000040: 7d02 58be a91a 293f 70d5 ecbe 4918 633f
00000050: ff92 da3d be2a 6e3f 3911 32bf f18a 70be
00000060: c055 64bf 5f13 7bbe eca7 0bbf 71f1 193e
00000070: be60 0c3f a611 5a3f 3292 56be d082 ccbc
00000080: f8ad 573f 6774 133e b9ae e03d 4549 ccbc
00000090: 2d2d 37be c109 893e db98 81be a817 8fbe
000000a0: c8b3 2fbe d00f 6dbf 4c77 513f cbf9 273e
000000b0: 2616 0dbf d96e 51bf 6234 b4be 5f46 ff3d
000000c0: 644c 0fbf 95e7 0dbf 80c3 4a3f e78e 083f
000000d0: 6ddf b53e bf52 6b3f abfd 0ebf e5a7 02bf
000000e0: 242f 8a3e adc9 663e b9ee 19bf ce68 f0be

net.1.weight f4 [40, 60]
0.07618854 -0.15610074 -0.06450388 0.1194086 -0.11475591 -0.05054522 0.08402205 0.10660252
-0.11111229 0.21277931 0.15715836 0.011361719 -0.3545804 -0.29799384 -0.030474111 -0.13237967
-0.18770142 -0.2062604 0.050449084 -0.13634315 0.0480924 -0.19907264 0.23453185 0.14066267
0.13884978 -0.03833666 0.09957936 0.26112682 -0.18063264 -0.16338673 0.277512 0.12914422
-0.13857809 0.24712214 -0.26667896 -0.15773301 -0.18288374 0.11357857 0.17046414 -0.092319384
0.15356147 0.19608235 -0.08623451 0.05256161 0.23456675 0.11082888 0.07952317 -0.024859563
0.10749804 0.10812711 -0.1351264 -0.14606348 -0.042412758 -0.10351688 0.16791946 -0.03784513
-0.2647227 -0.0021139192 0.024001118 -0.07346118 0.045753006 -0.05877565 -0.06397997 -1.001359
1.3439704 0.83803695 -1.4040877 0.14185886 1.2239605 -1.6800423 -0.98432803 -0.35118663
0.014009457 -0.04661515 -0.20133677 -0.21401319 -0.19063735 0.25277972 -0.6654553 0.9362197
0.33476698 0.92982924 -0.09484521 0.026485784 -0.7628456 -0.32722393 -0.06329959 0.10267157
1.6462781 0.76358014 0.2299922 -0.07755274 0.9935732 0.22837085 -0.10230404 -0.20435648
-0.18021487 0.15900008 0.022452585 -0.24524876 -0.047174525 -0.89169526 0.85577554 0.17027865
-1.0711626 -0.48349568 -0.33731392 0.16478595 -0.9220213 -0.5029509 0.7354662 1.016617
0.47942033 0.48234951 -1.2546213 -1.1732022 -0.06980373 0.26788554 -1.0678835 -0.72003394
0.088951 0.10011393 -0.11206909 -0.115439184 0.063437335 0.06705838 0.101376444 0.044801682
0.029560061 -0.050317742 -0.025444567 -0.0047782473 0.069228895 0.08812616 -0.022736786 -0.09040389
-0.047465473 0.06660739 0.05629522 -0.109413125 0.07969325 -0.11224066 -0.046010934 -0.090426005
-0.068399996 -0.09360982 -0.058162704 0.031675566 -0.08804001 -0.10855137 -0.10383153 -0.049264114
-0.031568684 -0.14305194 0.0072754743 0.07206292 0.10828797 -0.022321288 0.04441442 -0.12182128
-0.11310431 0.046531275 -0.07215181 -0.0014889694 0.09097414 -0.11569007 -0.057788733 0.034395803
0.1382886 0.036914065 -0.04635039 0.086739525 0.019795226 -0.04249973 0.035413723 -0.017683374
0.08463437 0.017692732 -0.06970522 0.047911264 -0.042322364 -0.033719976 0.019223839 -0.11833313
0.065480515 0.298052 -0.19729841 -0.004246554 0.09042995 -0.2553108 -0.21387614 0.049316563
0.13914841 0.18117619 -0.052887753 0.07308392 -0.06637437 -0.03965507 -0.21695949 0.31378043
0.025668263 0.28217176 -0.046486974 -0.009619548 -0.110263124 -0.06514995 0.06545034 -0.08413976
0.27455434 0.18631022 -0.004868778 0.03106026 0.11091679 -0.040102 -0.023466725 -0.041567583
-0.10692412 0.06088469 0.0204201 0.0020320313 0.09398991 -0.23695342 0.18985493 -0.0062628207
-0.21927209 -0.020756226 -0.03593703 0.094133794 0.037311602 -0.12778747 0.2099479 0.28193444
0.12217307 0.22750026 -0.3204002 -0.27648738 0.075265594 0.015324378 -0.1040315 -0.248072
0.06800731 -0.33269 -0.25341052 0.022729978 0.06883832 0.06850274 0.04054201 0.05287434
-0.06350885 0.009065568 -0.05049311 0.010137892 -0.14918971 -0.05119873 -0.08744606 -0.18698893
00000000: bd08 9c3d dfd8 1fbe 9c1a 84bd 7f8c f43d
00000010: 2605 ebbd 8108 4fbd c113 ac3d 6c52 da3d
00000020: d78e e3bd d2e2 593e 1fee 203e 8126 3a3c
00000030: 908b b5be a692 98be d8a4 f9bc 898e 07be
00000040: cd34 40be ed35 53be b3a3 4e3d 8a9d 0bbe
00000050: 89fc 443d b3d9 4bbe 1e29 703e e009 103e
00000060: a32e 0e3e e706 1dbd 43f0 cb3d 6ab2 853e
00000070: c3f7 38be da4e 27be 0e16 8e3e 623e 043e
00000080: 6ae7 0dbe 960d 7d3e 258a 88be c384 21be
00000090: e045 3bbe e29b e83d 278e 2e3e f211 bdbd
000000a0: 383f 1d3e d0c9 483e b89b b0bd d84a 573d
000000b0: 4432 703e 40fa e23d 0bdd a23d 48a6 cbbc
000000c0: ef27 dc3d bf71 dd3d 935e 0abe aa91 15be
000000d0: 00b9 2dbd a800 d4bd 14f3 2b3e 7f03 1bbd
000000e0: bc89 87be ae89 0abb fe9d c43c d172 96bd
000000f0: 8167 3b3d bcbe 70bd ee07 83bd 882c 80bf
00000100: 3907 ac3f 9789 563f 25b9 b3bf 7343 113e
00000110: bdaa 9c3f a00b d7bf ecfc 7bbf bcce b3be
00000120: ec87 653c 87ef 3ebd 3a2b 4ebe 4626 5bbe
00000130: 7036 43be 586c 813e 475b 2abf 18ac 6f3f
00000140: 9466 ab3e 4a09 6e3f 353e c2bd b7f8 d83c
00000150: d949 43bf e589 a7be 37a3 81bd 7945 d23d
00000160: 3eb9 d23f fd79 433f 1383 6b3e f9d3 9ebd
00000170: d05a 7e3f 0cda 693e c884 d1bd d342 51be
00000180: 3f8a 38be ebd0 223e 7cee b73c 7e22 7bbe
00000190: 133a 41bd 2446 64bf 1b14 5b3f 875d 2e3e
000001a0: db1b 89bf bf8c f7be 69b4 acbe a6bd 283e
000001b0: 9709 6cbf 64c1 00bf 8347 3c3f 8120 823f
000001c0: 9576 f53e 84f6 f63e 6e97 a0bf 7d2b 96bf
000001d0: 42f5 8ebd 4b28 893e 68b0 88bf 2554 38bf
000001e0: f12b b63d 8808 cd3d 7b84 e5bd 616b ecbd
000001f0: 6feb 813d e755 893d 749e cf3d f881 373d
00000200: f127 f23c fa19 4ebd 2071 d0bc d892 9cbb
00000210: e1c7 8d3d 7d7b b43d 7f42 babc ad25 b9bd
00000220: 286b 42bd 7569 883d d195 663d fd13 e0bd
00000230: 3736 a33d 6ede e5bd f675 3cbd 4531 b9bd
00000240: 4c15 8cbd 81b6 bfbd 043c 6ebd 3dbe 013d
00000250: 524e b4bd 2e50 debd a0a5 d4bd 2bc9 49bd
00000260: 2a4e 01bd 357c 12be 1a67 ee3b b995 933d
00000270: 15c6 dd3d 22db b6bc e5eb 353d 6f7d f9bd
00000280: 3ca3 e7bd 9497 3e3d 54c4 93bd 8629 c3ba
00000290: a650 ba3d eaee ecbd e1b3 6cbd 9de2 0c3d
000002a0: 879b 0d3e 3433 173d e8d9 3dbd 7ea4 b13d
000002b0: 9929 a23c 3214 2ebd fb0d 113d b9dc 90bc
000002c0: c954 ad3d 59f0 903c 9cc1 8ebd 9a3e 443d
000002d0: 375a 2dbd f51d 0abd 507b 9d3c a458 f2bd
000002e0: a61a 863d 469a 983e 9808 4abe ad26 8bbb
000002f0: 5633 b93d 19b8 82be 5902 5bbe 2a00 4a3d
00000300: ec7c 0e3e 4086 393e d4a0 58bd 06ad 953d
00000310: 49ef 87bd 5b6d 22bd a12a 5ebe d4a7 a03e
00000320: 4046 d23c d178 903e 2069 3ebd 4f9b 1dbc
00000330: a2d1 e1bd 566d 85bd d40a 863d 7751 acbd
00000340: 6392 8c3e 1bc8 3e3e 458a 9fbb 1672 fe3c
00000350: 5828 e33d ff41 24bd 4a3d c0bc c542 2abd
00000360: 08fb dabd 3a62 793d 0e48 a73c d42b 053b
00000370: c87d c03d eba3 72be 5569 423e 5938 cdbb
00000380: dd88 60be f608 aabc b532 13bd 38c9 c03d
00000390: 0dd4 183d b8da 02be 95fc 563e b659 903e
000003a0: e035 fa3d d4f5 683e 7f0b a4be c18f 8dbe
000003b0: d924 9a3d 1a13 7b3c 780e d5bd 9606 7ebe
000003c0: 6b47 8b3d 5856 aabe 06bf 81be 3834 ba3c
000003d0: 1bfb 8c3d 2a4b 8c3d 610f 263d c492 583d
000003e0: ee10 82bd c087 143c ddd1 4ebd 6719 263c
000003f0: 30c5 18be c2b5 51bd eb16 b3bd 077a 3fbe

net.1.bias f4 [40]
-0.14006025 0.09169724 -0.09313282 0.004365815 -0.19051546 0.035211038 0.1006094 0.15083538
-0.18633804 -0.0562391 -0.038660534 -0.053529065 -0.10215895 0.30288348 0.1164961 -0.012847177
0.032922518 -0.056472372 0.086869255 0.0037981172 -0.037135247 0.26977837 0.12299623 -0.4068582
-0.005751887 -0.04937371 0.024520634 0.04207892 0.06427157 -0.09819104 -0.06982754 -0.32761458
0.26056203 0.24721408 0.07958179 -0.11199279 0.40571183 0.117265716 0.017149914 0.044072185
00000000: f46b 0fbe c3cb bb3d 6cbc bebd 1c0f 8f3b
00000010: 7c16 43be 7339 103d 4d0c ce3d 9774 1a3e
00000020: 66cf 3ebe f85a 66bd 825a 1ebd 4b41 5bbd
00000030: b638 d1bd 8b13 9b3e 8295 ee3d f77c 52bc
00000040: c3d9 063d 934f 67bd 82e8 b13d d5e9 783b
00000050: 211b 18bd 6420 8a3e 73e5 fb3d b84f d0be
00000060: 537a bcbb 163c 4abd 7fdf c83c f25a 2c3d
00000070: d0a0 833d 6218 c9bd be01 8fbd 19bd a7be
00000080: 6368 853e b025 7d3e c7fb a23d 7a5c e5bd
00000090: 76b9 cf3e 0229 f03d fa7d 8c3c 0985 343d

net.2.weight f4 [40, 40]
-0.0135439 -0.1776594 -0.022260027 -0.013502538 0.02227799 -0.43630114 0.0441075 -0.011581066
-0.062011477 0.03119179 -0.20276627 0.07280472 0.3089527 0.05927831 0.12235604 0.18186764
0.03574884 0.23687857 0.29427943 -0.20793727 -0.11015429 -0.222932 0.18956816 0.15595861
0.2642209 -0.03153022 0.031297963 0.04859402 -0.34470493 -0.11066582 -0.029955594 0.15916896
0.10267969 0.372721 -0.3753445 -0.09455898 -0.13601165 0.045132536 -0.017695827 -0.14873159
-0.27870983 0.34192574 0.12957257 0.22074202 -0.07854709 0.5409968 0.011422354 -0.23799457
0.14567575 -0.24977769 0.19424492 0.146347 -0.251458 0.20579319 -0.05470705 -0.16222967
-0.076850295 -0.056579523 -0.276978 0.22141851 0.21753164 0.049407844 -0.080170825 -0.3048745
-0.24405834 0.33394778 -0.12908867 -0.124178894 0.17696135 0.06273792 -0.10610468 -0.051587917
0.16233443 -0.23021938 0.13392256 0.102495715 0.3135463 0.08146113 -0.004081724 0.28512537
0.16495244 -0.13158073 -0.008197061 -0.12337993 0.15817462 -0.021637686 0.020981757 0.10265652
0.09450454 0.10045965 -0.05017485 0.13124761 0.33578143 0.055985495 0.16568296 0.26204574
-0.060612794 0.10851281 0.1586102 0.003006074 -0.40760484 -0.054145027 0.32661405 0.11026527
0.057746615 -0.071433336 0.2899837 0.2049214 -0.2076106 0.041741963 0.0891629 0.16330414
0.02250787 0.1068966 -0.18508604 -0.1358928 -0.15439174 -0.053770363 -0.0745801 -0.16098785
0.3939136 -0.0089767445 -0.27282718 -0.35610023 0.08392127 -0.00080956944 -0.008915041 -0.024870558
0.013943992 0.3369015 -0.080671616 -0.19812968 0.065250225 -0.114708096 0.23491402 0.13294114
0.0041485457 0.11637688 0.2117375 -0.063228875 -0.15865386 -0.17422938 0.1459134 0.18356852
0.15161377 -0.34776756 0.25558653 0.08528867 0.04530662 0.08634494 -0.1778295 0.16233477
-0.16969578 0.13753134 0.03403973 0.05462017 -0.3888256 -0.14576168 -0.049936906 -0.3669983
0.09600966 -0.261361 -0.00076568703 -0.14679258 0.013684136 -0.24588177 0.019196996 0.05259368
-0.113490485 0.13856 -0.19862953 -0.04788915 0.26291472 -0.24080326 0.004816147 0.24862014
0.0044749426 0.06307651 0.28172943 -0.2104389 -0.34902337 -0.10928758 0.2040011 0.035707638
0.103375085 -0.056294914 0.18505302 0.24217525 -0.28039977 0.00097165717 0.1311412 0.046969492
-0.25519866 0.3266118 -0.19403079 0.06655072 -0.27884206 -0.1311989 -0.09868114 -0.19533253
0.6890917 -0.03158577 0.13576666 -0.41791436 0.5192899 -0.27744135 -0.09480614 0.108639814
0.08822727 0.52562267 0.05764424 -0.0060593816 0.19080707 -0.5162956 0.2173578 0.3153636
-0.053309657 0.26756284 0.16699164 -0.50597185 -0.44302192 -0.55134594 0.048262563 0.6988703
0.24209124 -0.39979357 0.01280843 0.39402923 -0.08259797 0.051865324 -0.06548598 0.6011325
-0.51766497 0.02312901 0.04955958 -0.045237094 -0.6248302 -0.42578393 -0.16084056 -0.36893657
-0.0045419815 -0.10108122 -0.0008864326 -0.2901524 0.1059063 -0.009282022 -0.023721963 -0.11210229
0.027429955 0.0774875 -0.08177658 -0.19651748 0.24401346 -0.12177209 0.14584033 0.25373852
00000000: 3ce7 5dbc 59ec 35be a95a b6bc c039 5dbc
00000010: 5580 b63c dd62 dfbe 11aa 343d 83be 3dbc
00000020: bfff 7dbd ed85 ff3c f6a1 4fbe a41a 953d
00000030: 0c2f 9e3e d0cd 723d ce95 fa3d 833b 3a3e
00000040: 606d 123d 4c90 723e cbab 963e 82ed 54be
00000050: 9398 e1bd 4948 64be 281e 423e 9db3 1f3e
00000060: f647 873e d525 01bd 4b32 003d 860a 473d
00000070: 2a7d b0be c3a4 e2bd 6f65 f5bc 30fd 223e
00000080: bb49 d23d 49d5 be3e 282d c0be 23a8 c1bd
00000090: a346 0bbe e5dc 383d d7f6 90bc 184d 18be
000000a0: 0eb3 8ebe e410 af3e acae 043e 320a 623e
000000b0: 4cdd a0bd c47e 0a3f d324 3b3c d9b4 73be
000000c0: 062c 153e b9c5 7fbe 24e8 463e fddb 153e
000000d0: 1abf 80be 73bb 523e 8014 60bd 891f 26be
000000e0: b063 9dbd eebf 67bd 0fd0 8dbe 89bb 623e
000000f0: 9dc0 5e3e e15f 4a3d 9a30 a4bd 8318 9cbe
00000100: 6eea 79be 34fb aa3e d22f 04be 8151 febd
00000110: 5b35 353e bd7c 803d 694d d9bd da4d 53bd
00000120: ff3a 263e a1be 6bbe ff22 093e 46e9 d13d
00000130: 2489 a03e 18d5 a63d fcbf 85bb f4fb 913e
00000140: 4be9 283e 19bd 06be f74c 06bc 9eae fcbd
00000150: 87f8 213e 8441 b1bc efe1 ab3c 953d d23d
00000160: 998b c13d cabd cd3d 2584 4dbd c665 063e
00000170: 8beb ab3e 0c51 653d cba8 293e dc2a 863e
00000180: 1f45 78bd f73b de3d b66a 223e 8e01 453b
00000190: 95b1 d0be 2dc7 5dbd f539 a73e c2d2 e13d
000001a0: b787 6c3d a44b 92bd be78 943e ead6 513e
000001b0: e097 54be 9ff9 2a3d 0a9b b63d 3339 273e
000001c0: 6d62 b83c 9bec da3d 3287 3dbe 7b27 0bbe
000001d0: de18 1ebe 503e 5cbd 74bd 98bd 00da 24be
000001e0: 0baf c93e 3213 13bc 01b0 8bbe c552 b6be
000001f0: eade ab3d 4939 54ba 6410 12bc 57bd cbbc
00000200: 5775 643c 5a7e ac3e 2937 a5bd 82e2 4abe
00000210: e9a1 853d 14ec eabd 4d8d 703e b921 083e
00000220: 86f0 873b 0057 ee3d b7d1 583e 247e 81bd
00000230: 2876 22be 3069 32be 536a 153e 63f9 3b3e
00000240: a440 1b3e 970e b2be 3ddc 823e d4ab ae3d
00000250: 6f93 393d 9ed5 b03d f018 36be 163b 263e
00000260: bbc4 2dbe 04d5 0c3e 3e6d 0b3d 66b9 5f3d
00000270: 2614 c7be 8d42 15be a48a 4cbd 34e7 bbbe
00000280: b6a0 c43d 1cd1 85be 63b8 48ba cb50 16be
00000290: 6d33 603c 6ec8 7bbe 0543 9d3c 786c 573d
000002a0: b36d e8bd ace2 0d3e 8a65 4bbe 6a27 44bd
000002b0: c29c 863e 2195 76be c5d0 9d3b 4796 7e3e
000002c0: 8aa2 923b 422e 813d d73e 903e 4c7d 57be
000002d0: 31b3 b2be 2bd2 dfbd aae5 503e 2c42 123d
000002e0: 51b6 d33d 7f95 66bd 8a7e 3d3e cafc 773e
000002f0: 8f90 8fbe cfb6 7e3a e149 063e 1563 403d
00000300: 66a9 82be a939 a73e 02b0 46be be4b 883d
00000310: 63c4 8ebe 0159 06be 5619 cabd 4005 48be
00000320: 5068 303f 1560 01bd 6a06 0b3e dff8 d5be
00000330: 2ff0 043f cb0c 8ebe b929 c2bd 8d7e de3d
00000340: 80b0 b43d 358f 063f 5e1c 6c3d c78d c6bb
00000350: ee62 433e f32b 04bf 0b93 5e3e 5677 a13e
00000360: 3a5b 5abd fffd 883e dbff 2a3e 5f87 01bf
00000370: c5d3 e2be 0225 0dbf f7ae 453d 2ae9 323f
00000380: c4e6 773e beb1 ccbe 73da 513c 33be c93e
00000390: 2029 a9bd bc70 543d 831d 86bd d2e3 193f
000003a0: b185 04bf 0d79 bd3c fcfe 4a3d 884a 39bd
000003b0: dff4 1fbf 5a00 dabe 63b3 24be 41e5 bcbe
000003c0: e7d4 94bb ac03 cfbd 7c5f 68ba db8e 94be
000003d0: 67e5 d83d 9f13 18bc 9054 c2bc e395 e5bd
000003e0: c9b4 e03c c4b1 9e3d 7b7a a7bd e13b 49be
000003f0: aade 793e a563 f9bd 2b57 153e 04ea 813e

net.2.bias f4 [40]
-0.062281564 0.20811826 0.073790655 -0.60749036 0.046401557 -0.3729617 -0.3198221 -0.15249518
-0.6595134 0.4069673 -0.45958683 0.47008267 -0.375437 -0.17526114 -0.4376982 0.10114095
-0.25435996 0.093085594 0.35668588 0.24890244 -0.5016941 -0.08054163 -0.021055533 -0.09815202
-0.40692925 -0.01921419 -0.64236075 -0.88893944 0.022979006 0.016172186 -0.16924073 -0.16717653
0.2357531 -0.15759629 0.46921706 -0.4026292 0.3988954 -0.53329915 -0.10370191 0.4753508
00000000: f41a 7fbd f41c 553e 8e1f 973d 7d84 1bbf
00000010: 8f0f 3e3d d6f4 bebe b9bf a3be b227 1cbe
00000020: dfd5 28bf 055e d03e f74e ebbe adae f03e
00000030: 4739 c0be a877 33be fa19 e0be fd22 cf3d
00000040: 783b 82be a9a3 be3d 889f b63e 48e0 7e3e
00000050: 066f 00bf 03f3 a4bd a77c acbc ed03 c9bd
00000060: 0859 d0be 1467 9dbc c171 24bf 8991 63bf
00000070: 783e bc3c 887b 843c 714d 2dbe 5330 2bbe
00000080: 4369 713e ec60 21be 383d f03e 6a25 cebe
00000090: 053c cc3e 4b86 08bf ab61 d4bd 2e61 f33e

net.3.weight f4 [1, 40]
-0.20470193 0.118718676 -0.12461034 -0.08314387 -0.11255848 9.488041e-05 -0.16719067 0.18126011
0.015929354 -0.051818967 -0.0008879432 0.07870309 -0.22346456 -0.10697954 -0.020271262 0.22319683
-0.093996644 0.16268276 -0.11892977 0.06990461 0.022509951 -0.1639908 0.15972538 -0.08845295
-0.11474595 0.19872178 0.0018948677 0.05905524 0.10713027 0.15686952 -0.09902464 -0.104055576
-0.19415508 -0.06414746 0.16047141 -0.048084717 0.12555106 0.03040818 0.006191689 0.03578403
00000000: 629d 51be c722 f33d b533 ffbd 5547 aabd
00000010: 0f85 e6bd 88fa c638 0834 2bbe 409c 393e
00000020: 477e 823c 2040 54bd dcc4 68ba 162f a13d
00000030: e5d3 64be 1718 dbbd eb0f a6bc b68d 643e
00000040: 5081 c0bd 4f96 263e 7491 f3bd 262a 8f3d
00000050: ca66 b83c 34ed 27be 0d8f 233e d226 b5bd
00000060: edff eabd b97d 4b3e 365d f83a e8e3 713d
00000070: 1d67 db3d 67a2 203e 6ecd cabd 171b d5bd
00000080: 97d0 46be be5f 83bd 9e52 243e 7bf4 44bd
00000090: 7590 003e 931a f93c a7e3 ca3b 4692 123d
