Models/best_model_A_inverse_e.pth (torch, 24373 bytes, 9 tensors)

net.0.weight f4 [40, 1]
0	0xbedeea50	-0.4353814
1	0x3f802131	1.0010129
2	0xb3022798	-3.0303994e-08
3	0x3f5e065d	0.8672846
4	0x3f2a98fb	0.6663968
5	0x3f463cb8	0.774364
6	0xb3373562	-4.265656e-08
7	0xbe9218d8	-0.2853458
8	0xbfaa91f5	-1.3325793
9	0x3fa279c7	1.2693413
10	0xbf3088e4	-0.6895888
11	0xbe974b03	-0.29549417
12	0xbf11994b	-0.5687453
13	0xbed61171	-0.41810182
14	0xb4545ef0	-1.9778577e-07
15	0x3fadf361	1.3589898
16	0xb1d6e84b	-6.2546284e-09
17	0x3eb3f2e7	0.35146257
18	0xbf59f79e	-0.8514346
19	0xbfae3935	-1.3611208
20	0xbe4146e5	-0.188747
21	0xbf7a3f4d	-0.9775284
22	0x3f97eda6	1.18694
23	0xbef22370	-0.47292662
24	0x3f2d4ed5	0.67698413
25	0x3f5b480a	0.856568
26	0xbe844ba3	-0.25838956
27	0x3eadc9d4	0.33943045
28	0xbe4eb668	-0.2018677
29	0xbedb032c	-0.42775857
30	0x3e36ec63	0.17863612
31	0x3118d420	2.223949e-09
32	0xbedaa91e	-0.4270715
33	0xbf3f6973	-0.7477028
34	0xbf3dbe21	-0.7411824
35	0x3f29f953	0.66396064
36	0x3eedd21e	0.4644937
37	0xb293a73f	-1.7189107e-08
38	0x3e0d1b7f	0.1378002
39	0xbf4a30b0	-0.7898054

net.0.bias f4 [40]
0	0xbf91791b	-1.1365083
1	0xbf822675	-1.0167986
2	0xb39f5be2	-7.420728e-08
3	0x3e0ae519	0.13563956
4	0xbe880641	-0.2656727
5	0xbe9bd08d	-0.3043255
6	0xb4397cf4	-1.7274925e-07
7	0x3d3250bc	0.043534026
8	0xbdb7aa93	-0.08968081
9	0xbd76f1df	-0.06028926
10	0x3f61b55e	0.8816737
11	0xbe4f764e	-0.20259973
12	0x3f17d368	0.59306955
13	0x3e85f562	0.26163775
14	0xb495d272	-2.7906532e-07
15	0xbcedeaa1	-0.029042544
16	0xb2e7feeb	-2.7007863e-08
17	0x3f9066a7	1.1281327
18	0xbe08e0ac	-0.13366956
19	0xbc4757d7	-0.012166939
20	0x3dfb6c26	0.12276487
21	0xbf84c8a5	-1.0373732
22	0x3e10cbde	0.14140269
23	0x3e907e31	0.28221276
24	0xbf33bce5	-0.70210105
25	0xbf83b918	-1.0290861
26	0xbf9250da	-1.1430924
27	0x3f6218c2	0.8831903
28	0x3e33740a	0.17524734
29	0xbf5cc4ac	-0.862376
30	0x3f844cf3	1.0335983
31	0x341a7133	1.4383549e-07
32	0x3ecab77d	0.39593115
33	0xbf9601a3	-1.171925
34	0xbf302592	-0.6880733
35	0xbf023d83	-0.5087511
36	0x3eb5f177	0.35535786
37	0x2ef1d228	1.09967424e-10
38	0xbe7f0cd9	-0.24907245
39	0xbf5c65a2	-0.8609258

net.1.weight f4 [40, 40]
0	0x3b9232f2	0.0044616396
1	0xbc1f6292	-0.009728091
2	0x3480a932	2.3964964e-07
3	0xbd8adc25	-0.067802705
4	0xbc080a72	-0.008303272
5	0xbba502c9	-0.0050357324
6	0xb469105e	-2.170577e-07
7	0xbdb684af	-0.08912026
8	0x3ce5279d	0.02797299
9	0x3c12650d	0.008935225
10	0xbcabd5ee	-0.020976033
11	0x3df824fa	0.12116428
12	0xbe05bd0b	-0.13060395
13	0xbe1a9d23	-0.15099005
14	0x34d08c98	3.8845315e-07
15	0x3bea015d	0.007141276
16	0xb3b5b711	-8.461769e-08
17	0xbd9b6533	-0.075876616
18	0xbd502a73	-0.050821733
19	0x3c2d1fa4	0.010566626
20	0xbdad49d1	-0.08461345
21	0x3d854fa9	0.065093346
22	0x3c026756	0.0079592075
23	0xbe3c22bd	-0.18372627
24	0x3d7a26b2	0.06107206
25	0x3d325bb4	0.043544486
26	0x3cf13e8e	0.029448774
27	0xbc129de7	-0.00894878
28	0xbd3cfd23	-0.046139847
29	0x3d4295a8	0.047506005
30	0xbd485c99	-0.048916433
31	0xb3b267c2	-8.307644e-08
32	0xbdc67c3a	-0.09691663
33	0x3da91948	0.08256775
34	0x3dab3394	0.08359447
35	0x3e206cb9	0.15666474
36	0xbda68834	-0.081314474
37	0xb41114e6	-1.351178e-07
38	0x3da34879	0.079728074
39	0x3d883f98	0.066527545
40	0x3e796d29	0.24358048
41	0xbe289f96	-0.16467127
42	0x331abd50	3.6028098e-08
43	0x3d802342	0.06256725
44	0xbe10c6e9	-0.14138378
45	0xbdf45a96	-0.119313404
46	0x340edb1e	1.3304495e-07
47	0x3c5db588	0.01353205
48	0xbcb3a631	-0.021929832
49	0x3e418006	0.18896493
50	0xbe49fa40	-0.19724369
51	0x3e308504	0.17238241
52	0x3d1bb247	0.038011815
53	0xbd3d6854	-0.046242073
54	0x349d4735	2.929534e-07
55	0x3ee40e58	0.44542193
56	0xb256735c	-1.2482669e-08
57	0xbd90cfd3	-0.07070889
58	0x3d9ab197	0.07553404
59	0xbe7e1fdb	-0.2481684
60	0x3c7a4787	0.0152758425
61	0x3d29b575	0.041432817
62	0xbd0b211f	-0.033967134
63	0xbd98d910	-0.074632764
64	0x3df01be7	0.11724072
65	0x3dc2fdfc	0.095211
66	0x3d620bae	0.05518692
67	0xbe18f1a0	-0.14935923
68	0x3d750cce	0.059826665
69	0x3e0d7f02	0.13817981
70	0xbe5ed5df	-0.21761273
71	0x340abc6b	1.2920798e-07
72	0xbe33fc5e	-0.17576739
73	0x3dd4a1ae	0.103824005
74	0x3c8b32f8	0.016992077
75	0xbbe6d481	-0.0070443754
76	0xbd20c670	-0.039251745
77	0xb41e81e9	-1.4762158e-07
78	0x3e306cf5	0.17229064
79	0x3e523170	0.20526671
80	0xbda60431	-0.08106268
81	0xbe5602c7	-0.20899497
82	0xb2e7fe7a	-2.7007662e-08
83	0x3e65f53d	0.22456832
84	0x3a3a9cf1	0.0007118723
85	0x3db8d463	0.090248846
86	0x33ef2205	1.1135493e-07
87	0xbdab153d	-0.0835366
88	0xbddd9e97	-0.10821264
89	0x3e42a9e1	0.19010116
90	0x3d900ac8	0.07033306
91	0xbdda198c	-0.10649404
92	0x3e156026	0.14587459
93	0x3d398706	0.045294784
94	0xb40beea1	-1.3032196e-07
95	0x3e2097ee	0.15682957
96	0x33270037	3.8882913e-08
97	0x3dd7dfac	0.10540709
98	0xbe2a512e	-0.1663253
99	0xbe24f611	-0.16109492
100	0x3c5391e5	0.012913202
101	0xbd6475e4	-0.05577649
102	0x3d89942c	0.06717715
103	0x3cb90639	0.022585975
104	0xbe2774da	-0.16353169
105	0xbe6227e8	-0.22085536
106	0xbdff5298	-0.124669254
107	0x3db186d4	0.086682945
108	0x3d0f33c0	0.034961462
109	0xbe1ca3a3	-0.15296797
110	0x3e35f0f8	0.17767704
111	0x34890e37	2.552858e-07
112	0x3d56cb23	0.05243982
113	0xbd62af7f	-0.055343147
114	0xbd8c43dc	-0.06848881
115	0xbd1948bb	-0.037422877
116	0x3d8c63f5	0.06855003
117	0xb1ecd4a8	-6.89268e-09
118	0xbe22ed9a	-0.1591095
119	0xbe08ccb4	-0.13359338
120	0x3d2b71a9	0.04185644
121	0x3d3dd471	0.046345178
122	0x342a30ce	1.5850239e-07
123	0xbda4b9ca	-0.08043249
124	0xbcc3f072	-0.023918364
125	0xbd01cbe1	-0.031688575
126	0xb04a2c20	-7.354988e-10
127	0x3cf93d74	0.030424811
128	0x3d161dc3	0.036649477
129	0xbcb9b153	-0.022667563
130	0xbe0c3fce	-0.13696215
131	0x3e25779f	0.16158913
132	0xbda03816	-0.078231975
133	0xbc9d4310	-0.019197017
134	0x346b4ed6	2.1914761e-07
135	0xbc5775f0	-0.013150677
136	0x32614599	1.3112548e-08
137	0xbd487031	-0.04893512
138	0x3dd63324	0.10458973
139	0x3cc5576f	0.024089543
140	0xbbf8915a	-0.0075856866
141	0x3d19625a	0.03744731
142	0xbd67648a	-0.056492366
143	0xbc7f7a64	-0.015593145
144	0x3d9ae16c	0.07562527
145	0x3deb4770	0.11488235
146	0x3d662a8d	0.056192923
147	0xbdc283aa	-0.09497769
148	0xbca0b99c	-0.019619755
149	0x3db82713	0.08991828
150	0xbda71350	-0.081579804
151	0xb43406f9	-1.6766343e-07
152	0xbd479bab	-0.04873244
153	0x3ce683a2	0.02813894
154	0x3da9e99f	0.08296513
155	0x3cd9dcec	0.026594602
156	0xbe3305aa	-0.1748263
157	0x32c4bd14	2.2903386e-08
158	0x3da17b4d	0.07884846
159	0x3d8fce8f	0.0702182
160	0xbe21bbe1	-0.15794326
161	0x3d897be1	0.06713081
162	0xb3fafc77	-1.1687455e-07
163	0xbd8761db	-0.06610461
164	0xbdc0993c	-0.09404227
165	0xbd2ee785	-0.042701263
166	0xb41589cc	-1.3926837e-07
167	0x3dc55d56	0.09636943
168	0x3d4ebf4d	0.050475407
169	0xbe0f46c9	-0.13991846
170	0x3dec54f4	0.11539641
171	0xbe0de02a	-0.13855043
172	0xbdc3bde2	-0.09557702
173	0x3e229115	0.15875657
174	0xb493a333	-2.7499627e-07
175	0xbe47efb6	-0.19525036
176	0x33ad2228	8.062153e-08
177	0x3da399ef	0.07988345
178	0xbd726476	-0.05917784
179	0x3e919787	0.2843592
180	0xbcccf1a7	-0.025017573
181	0xbe0a15fd	-0.1348495
182	0xbe4a2792	-0.19741657
183	0x3d546727	0.051856186
184	0xbd6a9bbf	-0.057277437
185	0xbe16cf18	-0.14727437
186	0x3ca01bcf	0.01954451
187	0xbd884569	-0.06653864
188	0xbdb3efdc	-0.08785984
189	0xbc1f928a	-0.0097395275
190	0x3d786cea	0.060650744
191	0x33a2039c	7.5443694e-08
192	0x3e43b9fa	0.19113913
193	0x3d240006	0.040039085
194	0xbe38f024	-0.18060356
195	0xbddeb766	-0.10874824
196	0x3e122194	0.14270622
197	0x326bd8dc	1.3728108e-08
198	0xbd986b06	-0.07442288
199	0xbe388c36	-0.18022236
200	0xbc8b4d2e	-0.017004576
201	0x3d1b42bf	0.03790545
202	0x3334c310	4.2086924e-08
203	0xbe497671	-0.19674088
204	0xbdfa66ed	-0.12226663
205	0xbd980f72	-0.07424821
206	0xb42d5c0b	-1.6145366e-07
207	0x3e4bc1e6	0.19898185
208	0x3d47bc5e	0.048763625
209	0xbe8d33bf	-0.27578542
210	0x3e07d4c6	0.1326476
211	0xbd918cb7	-0.07106917
212	0x3d89027c	0.06689927
213	0x3e7046d2	0.23464516
214	0xb5427780	-7.244453e-07
215	0xbe89857e	-0.2685966
216	0x35208d10	5.980992e-07
217	0x3cf7640a	0.03019907
218	0x3dda9f65	0.10674933
219	0x3ea7dad1	0.3278413
220	0x3e8070ad	0.25085965
221	0xbd39bd3c	-0.045346484
222	0xbd0b31eb	-0.033983152
223	0x3e93d3b6	0.2887246
224	0xbd2bd7a6	-0.041953705
225	0x3e0bfde4	0.1367107
226	0x3d0b4af0	0.034007013
227	0x3d9dc69a	0.07703896
228	0x3e07d0e8	0.13263285
229	0x3d543b35	0.051814277
230	0x3db5bdf4	0.08874121
231	0xb45dfebc	-2.0674901e-07
232	0x3e5da4f4	0.21644956
233	0x3ceb63fe	0.028734203
234	0xbe165c3b	-0.1468362
235	0xbdedc58e	-0.11609946
236	0x3c9fad75	0.01949189
237	0xb2dd8c59	-2.5791609e-08
238	0xbca50ad7	-0.02014677
239	0xbe5251f6	-0.20539078
240	0xbd72eac1	-0.05930591
241	0xbd69065c	-0.05689083
242	0xb451a184	-1.9523401e-07
243	0x3df06c82	0.11739446
244	0xbd04b144	-0.032395616
245	0x3aebd544	0.0017992635
246	0x33b0ff7c	8.242111e-08
247	0xbd890d85	-0.06692032
248	0xbd392f7c	-0.0452113
249	0x3daee0a6	0.08538942
250	0x3e25ad28	0.16179335
251	0xbe4dd3e6	-0.20100364
252	0x3d9301fb	0.07178112
253	0xbbbaeb8c	-0.005704349
254	0xb465ee02	-2.1413874e-07
255	0x3d8925e9	0.06696684

net.1.bias f4 [40]
0	0x3d9fc7c5	0.07801775
1	0x3e3a397e	0.18185994
2	0xbdf65680	-0.12028217
3	0x3e3dd6b7	0.18538938
4	0xbd8b644d	-0.0680624
5	0x3db5bebe	0.08874272
6	0xbe48bed6	-0.19604048
7	0x3e72a7b8	0.23696792
8	0x3d41774c	0.04723291
9	0x3e5d1997	0.21591793
10	0xbe143ea5	-0.14477022
11	0xbde4b0b1	-0.11166514
12	0x3c6e1c05	0.014533048
13	0x3af0e046	0.0018377386
14	0x3e547445	0.20747478
15	0xbdfc8f4a	-0.12332018
16	0x3d790839	0.060798857
17	0x3dbe3ed5	0.09289328
18	0xbcf463f5	-0.02983282
19	0x3e2fa0fb	0.17151253
20	0xbe6f2f72	-0.23357943
21	0x3c43178d	0.01190747
22	0xbe5bb4f3	-0.21455745
23	0x3e568c6f	0.20952009
24	0x3d14f2dd	0.036364425
25	0x3e06af7c	0.1315288
26	0xbdec6cf6	-0.1154422
27	0x3d9f2304	0.077703506
28	0x3cd9b47a	0.026575316
29	0xbcf8ce86	-0.030371916
30	0xbe12150e	-0.14265844
31	0x3e119d37	0.14220129
32	0x3e0f5dbc	0.140006
33	0xbe19776f	-0.14986967
34	0x3bc76e2d	0.006086132
35	0xbd879599	-0.0662033
36	0x3af83750	0.0018937383
37	0x3e6f5a64	0.23374325
38	0xbdb45250	-0.08804762
39	0xbd8250eb	-0.0636309

net.2.weight f4 [40, 40]
0	0x3cdd0955	0.026981989
1	0xbe98b1bd	-0.29823104
2	0x3c862146	0.016373288
3	0x3a9c7b85	0.0011938667
4	0x3e6f8607	0.23390971
5	0x3e883188	0.2660029
6	0xbd243d85	-0.040097732
7	0xbea3ddc4	-0.3200513
8	0x3e8fc5ca	0.2808059
9	0xbe84057a	-0.25785428
10	0xbd5c049a	-0.053715326
11	0xbd851e92	-0.064999714
12	0x3e91894d	0.28425065
13	0x3ea540bb	0.32275948
14	0xbec26389	-0.37966564
15	0xbde285e8	-0.11060697
16	0xbe3da7e5	-0.18521078
17	0xbe22f707	-0.15914546
18	0xbee959f7	-0.4557645
19	0x3b73bdf8	0.0037192088
20	0x3e76e287	0.24109851
21	0x3efa8008	0.48925805
22	0x3eb673d1	0.35635236
23	0xbcfab236	-0.030602556
24	0x3daf0128	0.085451424
25	0xbe95ebab	-0.29281363
26	0x3e4b785c	0.19870132
27	0xbdc80289	-0.097661085
28	0x3e414b69	0.18876423
29	0xbe80cebf	-0.25157735
30	0x3c441435	0.011967708
31	0xbabe1386	-0.0014501668
32	0x3e2d1e7f	0.16906165
33	0x3ed12f1b	0.4085625
34	0xbe3883cf	-0.18019031
35	0xbd86c359	-0.06580228
36	0x3ea245da	0.31693918
37	0xbe8677a3	-0.2626315
38	0xbcf4d8d3	-0.029888546
39	0x3dc23271	0.09482277
40	0x3d028d70	0.031873167
41	0x3d750fe4	0.059829608
42	0x3a26dd46	0.000636537
43	0x3b443d19	0.0029943644
44	0x3d3b16d4	0.045676067
45	0xbd851c28	-0.06499511
46	0xbae62a80	-0.0017560273
47	0x3d9d26be	0.07673405
48	0xbd72a4a2	-0.059239037
49	0x3ca65a6c	0.020306788
50	0x39a77bce	0.00031944964
51	0xbb785b8e	-0.0037896368
52	0x3e5eae8b	0.2174627
53	0x3cb8e356	0.02256934
54	0x3df5fd54	0.12011209
55	0xbc64e637	-0.013970903
56	0xbc4d79d0	-0.012541249
57	0xbc9909d4	-0.018681444
58	0x3cb6eb3f	0.022328971
59	0x3996fdca	0.00028799317
60	0x3d771cc5	0.06033017
61	0x3cd4bed6	0.025969904
62	0xbd7baec4	-0.061445966
63	0x3badc906	0.005303505
64	0x3ad2b24b	0.0016074864
65	0x3db447d6	0.08802764
66	0xbd93a6d8	-0.07209557
67	0x3c054ed8	0.008136474
68	0x3dd2949b	0.102822505
69	0x3e0dedfe	0.13860318
70	0xbb99e2b0	-0.0046962127
71	0xb8b7b057	-8.758966e-05
72	0x3c710205	0.014709954
73	0x3dc25929	0.09489662
74	0xbd911f40	-0.070860386
75	0x3cbf5f73	0.023360943
76	0x3e39bad9	0.18137683
77	0x3deca446	0.1155477
78	0xbb20af0a	-0.0024518394
79	0xbd8add3e	-0.0678048
80	0xbc3de830	-0.011591002
81	0xbd46c739	-0.048529837
82	0xbaef315e	-0.0018248965
83	0xb9aea0f2	-0.0003330778
84	0x3d072cd8	0.03300175
85	0xbc464410	-0.012101188
86	0xba7481ce	-0.0009327204
87	0xbd3ad195	-0.04561003
88	0x3d4c6819	0.049903963
89	0xbcf79646	-0.030223023
90	0xbaa74aea	-0.0012763415
91	0xba18c039	-0.0005826983
92	0x3d18dbbf	0.03731894
93	0xbd47d713	-0.048789095
94	0xbd5f33a2	-0.0544926
95	0xbaa193aa	-0.0012327333
96	0xbce380fc	-0.027771465
97	0xbafc8dd9	-0.0019268348
98	0x3cdbef5a	0.02684753
99	0x3afc1747	0.0019233011
100	0x3da9880d	0.08277903
101	0xbcd5e051	-0.026107939
102	0x3d271b9a	0.040797807
103	0xba2602bf	-0.00063328067
104	0x3b88eb9d	0.004178478
105	0xbb2e1b5c	-0.00265666
106	0x3d8d600a	0.069030836
107	0xbaf30396	-0.0018540497
108	0x3e397ecb	0.18114774
109	0x3b1ab9e0	0.0023609325
110	0xbaa80438	-0.001281864
111	0x3af9d3a5	0.0019060267
112	0x3acd5a99	0.0015667259
113	0x3b865fb8	0.004100766
114	0xbcab44f1	-0.020906897
115	0xbae36565	-0.0017348944
116	0x3ca8fd2b	0.020628532
117	0xbd5a797c	-0.053338513
118	0xbabb4f1f	-0.0014290548
119	0x3d08ba13	0.03338058
120	0x3ca16c61	0.019705
121	0x3da21dd1	0.07915843
122	0xbdeefd6d	-0.11669431
123	0x3dd270fa	0.10275455
124	0xbda45f83	-0.0802603
125	0xbdda2d51	-0.10653175
126	0xbdf9652d	-0.12177501
127	0xbd33026a	-0.043703474
128	0xbc14c2db	-0.00907966
129	0x3dd004b9	0.10157151
130	0xbdb96f97	-0.09054487
131	0xbe063eba	-0.13109866
132	0xbdca81b1	-0.09888018
133	0x3dc756b9	0.09733338
134	0x3ccc0e24	0.024909087
135	0xbea01add	-0.31270495
136	0x3da7c3be	0.08191632
137	0xbe6f31d4	-0.23358852
138	0xbc2ebb7c	-0.010664817
139	0x3df551a1	0.1197846
140	0x3bc7e317	0.0061000693
141	0xbd35769e	-0.044302575
142	0xbd55ba90	-0.052179873
143	0x3d65232d	0.05594175
144	0xbe73cb97	-0.23808132
145	0xbc23d2ec	-0.009999018
146	0x3d38297b	0.044961434
147	0x3d18919b	0.037248235
148	0xbd5fc0f4	-0.054627374
149	0xbd345a4c	-0.044031426
150	0xbdbfd6cb	-0.093671404
151	0x3de16949	0.1100641
152	0x3e33c697	0.17556225
153	0xbd8e84d3	-0.06958928
154	0x3d3e8d7e	0.046521656
155	0xbdabf678	-0.083966196
156	0xbdb496b9	-0.088178106
157	0x3d33a832	0.043861575
158	0x3ccbb687	0.02486731
159	0x3dc6ed28	0.09713203
160	0x3ccc9ee5	0.02497811
161	0x3bd55b2f	0.006511114
162	0xbba3daa1	-0.005000428
163	0x3c47f0b9	0.012203389
164	0x3af646c4	0.00187894
165	0xbd7b0c1d	-0.06129085
166	0xbc29875e	-0.010347215
167	0x3d88e02c	0.066833824
168	0x3c0f67a9	0.008752742
169	0xbbd0d3dd	-0.0063729123
170	0xbc198a8b	-0.00937141
171	0xbc26a9fe	-0.010172365
172	0x3da556d6	0.08073203
173	0xbcc2468f	-0.023715286
174	0x3d076873	0.033058595
175	0xbc4138d3	-0.011793333
176	0xbd2733ee	-0.04082101
177	0xbc088179	-0.00833165
178	0x3d246327	0.04013362
179	0x3bb924d8	0.005650144
180	0x3bdc8364	0.00672953
181	0x3d1cceaf	0.038283046
182	0xbd71fe72	-0.05908055
183	0x3c4cf39b	0.012509252
184	0xbc0d6f8e	-0.008632554
185	0x3c414eb4	0.011798549
186	0xbc9b48c8	-0.018955603
187	0x3c4849f4	0.012224663
188	0xbc9a45d1	-0.01883212
189	0x3bee0d66	0.007264781
190	0xbbc5d4e3	-0.006037341
191	0x3bb4b53f	0.0055147703
192	0x3c112357	0.008858523
193	0x3d1d88cb	0.038460534
194	0xbc311a76	-0.010809531
195	0xbbc816a8	-0.0061062165
196	0x3dc4988b	0.09599408
197	0x3d16bf5a	0.03680358
198	0xbc109324	-0.008824144
199	0xbd0017a1	-0.031272534
200	0xbcfb9ec8	-0.030715361
201	0xbe205922	-0.15659001
202	0xbbf3da62	-0.0074418047
203	0xbce0dd5c	-0.027449302
204	0x3e3d127f	0.18464087
205	0x3cd8b17a	0.026451815
206	0x3d286f27	0.041121628
207	0xbe2f594d	-0.1712391
208	0xbcbdb704	-0.023158558
209	0xbe44c4cd	-0.19215699
210	0x3c914ad1	0.01773587
211	0x3afc9443	0.001927026
212	0x3e867e2a	0.2626813
213	0xbddf602e	-0.10907017
214	0xbd6d9fa8	-0.05801359
215	0x3e0a3a91	0.13498904
216	0xbc83d916	-0.016094726
217	0x3d3d963b	0.04628585
218	0x3c072842	0.008249344
219	0x3c9f3d71	0.019438477
220	0x3dbd4de6	0.092433736
221	0x3e4c2713	0.1993678
222	0x3e3dd238	0.18537223
223	0x3d4067f2	0.04697413
224	0x3ceb049f	0.028688727
225	0x3d298508	0.041386634
226	0x3e6ce2e3	0.23133425
227	0x3d515c63	0.051113497
228	0x3e088f64	0.13335949
229	0xbde9b522	-0.114115015
230	0xbba2feb0	-0.004974209
231	0x3bcdcbf2	0.0062804157
232	0xbdba5fe4	-0.09100321
233	0x3e1c4ad5	0.15262921
234	0xbdb8019d	-0.08984683
235	0x3d9665ea	0.07343657
236	0x3e27ff42	0.16405967
237	0xbad6f659	-0.0016400322
238	0xbc43362c	-0.011914771
239	0x3c954dae	0.018225517
240	0xba32e9bf	-0.0006824992
241	0xbc96f762	-0.018428508
242	0x3b3f7005	0.0029211056
243	0xbcaf7b11	-0.021420987
244	0x3c9fd08e	0.019508626
245	0x3d08ec35	0.03342839
246	0xb9d3f1a1	-0.00040425084
247	0x3c004df6	0.007831087
248	0x3d9735b0	0.07383287
249	0x3d23003e	0.039795153
250	0x3c01993d	0.00791007
251	0x3d438d73	0.04774232
252	0x3c1081dc	0.008820023
253	0x3c00855b	0.007844294
254	0x3c780684	0.015138272
255	0x3d9fd667	0.07804566

net.2.bias f4 [40]
0	0x3e27796d	0.16354914
1	0xbd74e81f	-0.05979168
2	0x3e55695a	0.2084097
3	0x3da05776	0.07829182
4	0xbcad989c	-0.021190934
5	0x3e261625	0.16219385
6	0x3d2d21d2	0.04226858
7	0x3d0a00e9	0.033692274
8	0x3e88a5f0	0.266891
9	0xbeb3f70c	-0.3514942
10	0x3e9c13d9	0.30483893
11	0x3c9169e1	0.017750682
12	0xbe44735e	-0.19184634
13	0x3eafe06b	0.34350905
14	0xbd692d11	-0.056927744
15	0x3bde2af5	0.006780023
16	0xbeadbaca	-0.3393157
17	0xbe281541	-0.16414358
18	0x3e8b963b	0.27263054
19	0x3e1dcb6c	0.1540963
20	0x3e114cd1	0.1418946
21	0xbe8152fe	-0.2525863
22	0xbe220823	-0.15823416
23	0x3d1aa9ff	0.037759777
24	0xbe18f156	-0.14935812
25	0xbd4abcb8	-0.049496382
26	0xbdceff41	-0.101072796
27	0xbe69e0af	-0.22839616
28	0xbbfdaef2	-0.0077418024
29	0xbe15ce2d	-0.14629431
30	0x3ce30ac2	0.02771509
31	0x3a50b21a	0.00079611095
32	0xbd9a9542	-0.07548
33	0xbe9667c3	-0.2937604
34	0x3cd6b63e	0.026209947
35	0xbe5de0a0	-0.21667719
36	0x3e18441d	0.14869733
37	0xba9dbb8d	-0.0012034044
38	0x3e692eb2	0.22771719
39	0x3d64f72a	0.055899777

net.3.weight f4 [40, 40]
0	0xbd790eec	-0.060805246
1	0x3d8f10d3	0.06985631
2	0xbc850a45	-0.016240248
3	0x3db550a4	0.088532716
4	0x3c1bd1e6	0.009510493
5	0xbe2f41a3	-0.17114882
6	0xbc472243	-0.012154165
7	0x3ca78240	0.02044785
8	0xbe2bcc32	-0.16777113
9	0x3c9d534f	0.019204764
10	0xbb474744	-0.0030407468
11	0xbd700038	-0.05859396
12	0x3d661333	0.056170654
13	0xbdfdf798	-0.124007404
14	0x3dd422c4	0.103581935
15	0xbb3958dd	-0.0028281726
16	0xbd9b12ca	-0.07571943
17	0x3e1cb00c	0.15301532
18	0xbe151c09	-0.14561476
19	0xbbfdcd9d	-0.0077454583
20	0xbdbf4498	-0.09339255
21	0x3ccc6645	0.02495111
22	0xbd7c07a4	-0.061530724
23	0x3d079aed	0.033106733
24	0x3e354606	0.17702493
25	0x3dda5d81	0.10662366
26	0x3d4ce281	0.0500207
27	0xbd74c177	-0.059754815
28	0xbb4a528b	-0.0030871953
29	0x3dca0cc2	0.098657146
30	0xbccfe17a	-0.02537607
31	0x3d9cff9c	0.07665941
32	0x3e27cb61	0.16386177
33	0x3e03ee1e	0.12883803
34	0xbcdcce87	-0.026953949
35	0x3da37f8d	0.07983313
36	0xbe311941	-0.1729479
37	0xbd9f427a	-0.07776351
38	0xbde51043	-0.11184742
39	0x3d1bd1e1	0.038041953
40	0xbda97edd	-0.082761504
41	0x3d89d0d5	0.06729285
42	0xbd8a1d62	-0.067438856
43	0x3d043b64	0.0322832
44	0x3bc2e961	0.005948231
45	0xbd7ba818	-0.061439604
46	0xbdba8532	-0.09107436
47	0xbdac59d3	-0.0841557
48	0xbdab3f39	-0.08361668
49	0x3d0e70ce	0.034775548
50	0xbdaf3294	-0.08554569
51	0xbda7181b	-0.08158895
52	0x3bbd1a9d	0.005770995
53	0xbe08f482	-0.13374522
54	0x3d140a2b	0.03614251
55	0xbb1f2a27	-0.00242866
56	0xbd36fa0a	-0.04467205
57	0x3e0d846c	0.13820046
58	0xbde3849c	-0.111092776
59	0xbd0bebc9	-0.03416041
60	0xbd44e013	-0.048065256
61	0x3d9286c9	0.071546145
62	0x3dfa2c20	0.122154474
63	0x3c8dec76	0.017324667
64	0x3daf3a5a	0.085560516
65	0x3ba917fc	0.00516033
66	0x3cfc64c3	0.030809766
67	0x3dcf2b19	0.10115642
68	0xbbe2ad91	-0.0069176634
69	0x3df7e6cd	0.12104569
70	0x3cabf1fb	0.020989409
71	0x3dbb767b	0.09153458
72	0x3e06bac5	0.13157184
73	0x3e16acf2	0.14714411
74	0x3ba0ec13	0.0049109547
75	0x3dfda3af	0.12384736
76	0xbe047051	-0.1293347
77	0xbd575d60	-0.052579284
78	0xbddaae74	-0.106778055
79	0x3ca6a807	0.020343794
80	0x3e3afc19	0.1826023
81	0x3c9e1a7e	0.019299742
82	0x3ca64096	0.020294469
83	0x3a0eb57e	0.00054439146
84	0x3db604dd	0.08887646
85	0x3d97bf6c	0.07409558
86	0xbcf20720	-0.029544413
87	0x3c74763f	0.01492077
88	0x3dd96dda	0.10616656
89	0x3d7a57f0	0.06111902
90	0x3e3aa2db	0.18226187
91	0x3e18fc12	0.14939907
92	0xbd303d9e	-0.043027513
93	0x3d9f7121	0.077852495
94	0xbdaa89aa	-0.083270386
95	0xbc63b404	-0.0138979
96	0xbe31df2a	-0.17370287
97	0xbdf95aa5	-0.12175492
98	0x3e0676b9	0.13131227
99	0x3cc0c7f0	0.023532838
100	0xbd8df784	-0.069319755
101	0xbe126e46	-0.14299878
102	0xbdb80f18	-0.08987254
103	0x3daca1af	0.08429276
104	0xbe30a62d	-0.17250891
105	0xbd593f72	-0.05303902
106	0x3bad7e98	0.005294632
107	0x3d0dd05c	0.034622535
108	0x3dc0b9f0	0.09410465
109	0xbdbe7bd0	-0.09300959
110	0xbd0845a5	-0.033269543
111	0xbe12f2f8	-0.14350498
112	0xbd0dd81a	-0.03462992
113	0xbde8e30f	-0.11371433
114	0x3db4410c	0.08801469
115	0xbd7a2693	-0.061071943
116	0x3e4cdc5c	0.20005935
117	0xbe0617d5	-0.13095029
118	0x3dcb4c06	0.0992661
119	0x3da72049	0.08160455
120	0xbe118fc1	-0.14214994
121	0xbc45481b	-0.012041117
122	0xbd368d47	-0.044568326
123	0x3e325be5	0.17417867
124	0x3c3398eb	0.010961751
125	0xbda41e60	-0.08013606
126	0xbdf06f33	-0.117399596
127	0x3c725724	0.014791284
128	0xbd17ee46	-0.03709247
129	0xbd89a610	-0.06721127
130	0xbdf5b134	-0.119966894
131	0xbc4b1ef2	-0.012397515
132	0x3d746ab5	0.059672076
133	0x3acb8c5e	0.0015529504
134	0x3de3ffc9	0.111327715
135	0xba8646bc	-0.0010244469
136	0x3e05c11c	0.13061947
137	0x3e3a2aba	0.18180361
138	0xbd31d9ce	-0.043420605
139	0x3dc9386f	0.09825217
140	0xbdaa912c	-0.083284706
141	0x3de9a995	0.11409298
142	0x3c005435	0.0078325765
143	0x3db1dfec	0.08685288
144	0x3d3ebd53	0.046567272
145	0x3db7000e	0.08935557
146	0xbb3d17b6	-0.0028853244
147	0xbc698fdb	-0.014255489
148	0x3c78bfd7	0.015182457
149	0x3cdc76b9	0.02691208
150	0x3d422547	0.04739883
151	0x3e488b25	0.1958433
152	0xbcecc51f	-0.028902588
153	0x3de513c2	0.11185409
154	0xbd1297c5	-0.03578927
155	0x3dd0d0e5	0.101960935
156	0xbd9e81c1	-0.07739592
157	0x3d0fe6a0	0.03513205
158	0xbdd7d639	-0.105389066
159	0x3d8fae96	0.070157215
160	0xbbdaa34b	-0.006672298
161	0x3d53732c	0.05162351
162	0xbc3110ac	-0.010807198
163	0xbc1610d6	-0.009159287
164	0x3ca5d104	0.020241268
165	0xbdeb105b	-0.11477729
166	0xbdc1ab1d	-0.094564654
167	0xbdd0fb57	-0.10204189
168	0xbd5aee3f	-0.053449865
169	0x3a07b5ab	0.0005176912
170	0xbe2ef3b9	-0.1708516
171	0xbd726b4c	-0.059184358
172	0xbcd35a64	-0.025799938
173	0xbe0e2d63	-0.13884501
174	0x3df8e967	0.12153893
175	0xbaf392ba	-0.0018583157
176	0x3e0e56aa	0.13900247
177	0x3d50cc88	0.050976306
178	0xbe0b5177	-0.13605295
179	0xbd97c44d	-0.07410488
180	0xbe1fbe77	-0.156
181	0x3dfee053	0.1244513
182	0x3e04f8a7	0.12985478
183	0x3ca14a1b	0.019688657
184	0x3e4d82e7	0.20069467
185	0x3bfae789	0.0076569957
186	0x3df6392c	0.120226234
187	0xba9663eb	-0.001147387
188	0xbd435f3c	-0.047698244
189	0xbca63d0d	-0.020292783
190	0x3c2687e8	0.0101642385
191	0xbbf44211	-0.007454165
192	0x3db40a26	0.08790998
193	0x3d9e4762	0.07728459
194	0xbd2ebf4f	-0.042662915
195	0x3da2f19c	0.079562396
196	0xbe17d7fe	-0.14828488
197	0xbdb18a37	-0.086689405
198	0xbe260004	-0.16210943
199	0x3c1420ea	0.00904105
200	0xb66bbfb8	-3.5129324e-06
201	0xb67fe18e	-3.8129251e-06
202	0x37142fef	8.832648e-06
203	0x3683b7a1	3.9254815e-06
204	0xb65557ad	-3.1790507e-06
205	0x35f296ca	1.807429e-06
206	0x34c34a10	3.6375468e-07
207	0xb58c274a	-1.0442247e-06
208	0xb71732bb	-9.012113e-06
209	0x34ec2c54	4.3990678e-07
210	0xb632a9d6	-2.6622924e-06
211	0xb7140303	-8.822189e-06
212	0xb7025d44	-7.770319e-06
213	0xb6aeef46	-5.213459e-06
214	0xb6443a37	-2.9240161e-06
215	0xb5fe4f71	-1.8947595e-06
216	0x3673500f	3.6256422e-06
217	0xb655d9d9	-3.1866277e-06
218	0xb6e76e89	-6.8972045e-06
219	0x36825050	3.8836515e-06
220	0x36f0772a	7.16643e-06
221	0x367f765d	3.8066858e-06
222	0x36cda9d0	6.129245e-06
223	0xb6925111	-4.3605764e-06
224	0xb70f24c9	-8.532029e-06
225	0x36a3fbc2	4.887087e-06
226	0xb6596dcf	-3.2399437e-06
227	0xb5e4a01b	-1.7033921e-06
228	0x36ec139d	7.0356314e-06
229	0xb7133bf3	-8.775841e-06
230	0xb58a25eb	-1.0292837e-06
231	0xb6efd2bf	-7.147289e-06
232	0x3514855a	5.532835e-07
233	0x36d3575e	6.298461e-06
234	0x36f85bd6	7.401667e-06
235	0x3619dbda	2.2926747e-06
236	0xb7170857	-9.002243e-06
237	0xb6babd74	-5.565287e-06
238	0xb5da6e67	-1.6274397e-06
239	0xb59b8ffc	-1.1590305e-06
240	0x3e63c11b	0.22241633
241	0x3d8851f8	0.06656259
242	0xbd765b73	-0.060145807
243	0x3d50242d	0.05081575
244	0x3e202cb8	0.15642059
245	0x3e1f7f30	0.15575862
246	0x3d12687e	0.035744183
247	0x3ba00339	0.0048831967
248	0x3e218f75	0.15777381
249	0xbd410aac	-0.047129318
250	0x3e38b836	0.18039021
251	0xbdafe47d	-0.085885026
252	0xbd7cda2a	-0.061731495
253	0x3c85552c	0.016275965
254	0xbd85d1a5	-0.06534127
255	0xbbb74725	-0.005593198

net.3.bias f4 [40]
0	0x3de423c4	0.11139634
1	0x3e5c55c3	0.2151709
2	0xbd76d04d	-0.060257245
3	0x3debe6c8	0.115186274
4	0x3e918236	0.28419656
5	0xb6f9c605	-7.443831e-06
6	0xbdeba7fe	-0.11506651
7	0xbdcee54b	-0.10102328
8	0x3e85ed76	0.2615773
9	0x3e7feebf	0.24993418
10	0x3e5db0c4	0.21649462
11	0x3e720ca3	0.23637633
12	0x3dd9f203	0.10641863
13	0x3e373ce7	0.17894326
14	0xb41a3cf1	-1.4364538e-07
15	0x37811561	1.5387954e-05
16	0x3c96dda7	0.018416239
17	0xb5b9b32c	-1.383572e-06
18	0x3e05aa99	0.13053359
19	0xbe27d063	-0.16388087
20	0xb5820982	-9.688522e-07
21	0xbe771fd7	-0.2413324
22	0x343a9034	1.737506e-07
23	0x3e316696	0.1732429
24	0x3e872c31	0.26400903
25	0x3e242248	0.16028702
26	0x3dbfb9f3	0.09361639
27	0x3de5b54e	0.11216222
28	0x3de5153d	0.111856915
29	0xbde49306	-0.11160855
30	0x3e1972ef	0.1498525
31	0xbe1ed100	-0.15509415
32	0x3da8ec79	0.082482286
33	0xbd18eea4	-0.03733696
34	0xbe4d7e32	-0.20067671
35	0x3e654611	0.2239001
36	0x3c80343c	0.015649907
37	0xbd82abe5	-0.063804425
38	0x3564fb78	8.5302554e-07
39	0x3735b969	1.083161e-05

net.4.weight f4 [1, 40]
0	0xbdbdd998	-0.09270018
1	0xbdccda0d	-0.100025274
2	0x3e469eba	0.19396487
3	0xbdc50610	-0.09620297
4	0xbdb0e724	-0.086378366
5	0xb4e33b5c	-4.2325235e-07
6	0x3dee519b	0.11636659
7	0x3e222cc3	0.15837388
8	0xbe10d538	-0.14143836
9	0xbe3c0eef	-0.18365072
10	0xbd7ca103	-0.06167699
11	0xbe2edac1	-0.17075635
12	0xbda65e85	-0.08123497
13	0xbd900b05	-0.07033352
14	0x3374b94c	5.6979204e-08
15	0x344d1142	1.9098391e-07
16	0x3d1e6903	0.038674366
17	0xb4e40df2	-4.2478456e-07
18	0xbd67ee68	-0.056623846
19	0x3db3459b	0.087535106
20	0xb27f79b6	-1.4870627e-08
21	0x3e6387d1	0.22219779
22	0xb37038c2	-5.5930975e-08
23	0xbe3889a7	-0.1802126
24	0xbdead74a	-0.114668444
25	0xbddce4f2	-0.10785855
26	0xbd877e32	-0.06615867
27	0xbd6c5aa0	-0.057703614
28	0xbe706629	-0.23476471
29	0x3dca1386	0.09867005
30	0xbe7a8f07	-0.24468623
31	0x3e7f4c38	0.24931419
32	0xbdeebf0c	-0.11657533
33	0xbe1dcd46	-0.15410337
34	0x3e58d810	0.21176171
35	0xbde72f67	-0.11288338
36	0x3b3955fc	0.002828001
37	0x3a63b8c6	0.0008686896
38	0x33841c93	6.1519266e-08
39	0xb3e94db4	-1.0864042e-07
