Models/best_model_A_eps_0.01.pth (torch, 20561 bytes, 7 tensors)

net.0.weight f4 [60, 1]
0	0x3f7bc66a	0.9834963
1	0x3fc4024f	1.5313205
2	0xbf6ddcc7	-0.92915004
3	0x3f4a8660	0.7911129
4	0x3fa0ceba	1.2563088
5	0xbf91a614	-1.1378808
6	0xbfed9130	-1.8559933
7	0x402385fb	2.5550525
8	0xbf00ed7f	-0.5036239
9	0x3ffc5bef	1.9715556
10	0x3fb6e8a2	1.4289744
11	0x3f4d5e54	0.8022206
12	0xbf6f5a7a	-0.9349743
13	0x3ffa445d	1.9552113
14	0xc003ba4a	-2.0582452
15	0x3fa8a10b	1.3174146
16	0x3f8f4a71	1.1194593
17	0xbfaded03	-1.3587955
18	0xbfd7e740	-1.6867447
19	0x3f9ebd20	1.2401466
20	0x3f632b3a	0.88737833
21	0x3fea7002	1.8315432
22	0x3fb7cb34	1.4358888
23	0x4024ada1	2.5730975
24	0x3f6b9c26	0.9203514
25	0xbe61f6c3	-0.22066788
26	0xbf8ab96e	-1.0837839
27	0xbfd71ddf	-1.6805991
28	0x4049f1b6	3.1553779
29	0xbf988f67	-1.1918763
30	0x3fa55c2c	1.2918754
31	0xbf962b60	-1.1731987
32	0xbf347b23	-0.7050039
33	0x3ffe5548	1.9869776
34	0x3fb6c993	1.4280266
35	0xbf8177c1	-1.0114671
36	0x3f33d32a	0.70244086
37	0x401dd330	2.4660149
38	0xbede44b8	-0.43411803
39	0x3ff6374d	1.9235626
40	0xbfea9dec	-1.8329444
41	0xc02a6899	-2.6626341
42	0x4001b96d	2.0269425
43	0xbf520cb9	-0.82050663
44	0xbfcb8304	-1.5899358
45	0xbfa318e4	-1.2741971
46	0xbf95ea06	-1.1712043
47	0xbf8e3a34	-1.1111512
48	0x3f97c6c3	1.1857532
49	0x3f0bf862	0.5467588
50	0xbf7c7c73	-0.98627394
51	0x3f9e7b84	1.2381444
52	0x3f47cf56	0.78050745
53	0xbe5f666a	-0.21816412
54	0xc00f8471	-2.2424586
55	0x3f3c8a1a	0.73648226
56	0x3ea909d0	0.330153
57	0xbf9583e0	-1.168087
58	0xbf75cb06	-0.96012914
59	0x3f47591c	0.77870345

net.0.bias f4 [60]
0	0xbf58f9eb	-0.84756345
1	0xbe64e202	-0.2235184
2	0xbf2e24dd	-0.68025
3	0xbf29e27b	-0.66361207
4	0xbf8a6bc7	-1.0814141
5	0x3e4af160	0.1981864
6	0x3e0ab21e	0.13544509
7	0xbcb1adad	-0.02168926
8	0x3e293778	0.16525066
9	0xbe6f68f3	-0.23379879
10	0xbf9deac8	-1.2337275
11	0xbf27fa23	-0.65616053
12	0x3f4edc60	0.80805016
13	0xbe6dd735	-0.23226626
14	0x3e3dd9d7	0.1854013
15	0xbf68c71f	-0.90928835
16	0xbf76f8ca	-0.9647337
17	0x3e52ea24	0.2059713
18	0x3e403295	0.18769296
19	0xbede46eb	-0.4341348
20	0xbf3f3bd2	-0.74700654
21	0xbe4dca6a	-0.20096746
22	0x3e5266f6	0.20547089
23	0x3dc259ee	0.09489809
24	0xbf4ccb2c	-0.79997516
25	0x3ecb2c02	0.39682013
26	0x3d9a6fad	0.07540832
27	0xbe83d8f9	-0.25751474
28	0xbe873ddb	-0.2641438
29	0x3f84c1b2	1.0371611
30	0xbf8f71a2	-1.1206553
31	0x3e47cf1f	0.19512604
32	0x3f13dcf0	0.57759
33	0xbe7a40b5	-0.24438746
34	0xbe266117	-0.16247974
35	0x3f16ad74	0.5885842
36	0xbdbd71ff	-0.09250259
37	0xbe29aa9a	-0.16568986
38	0x3f230b22	0.6368886
39	0xbde2978d	-0.11064062
40	0xbe9eba37	-0.31001446
41	0x3e005e69	0.12536015
42	0xbe585cff	-0.21129225
43	0x3f154993	0.5831539
44	0x3e22d677	0.15902124
45	0x3f43d580	0.7649765
46	0x3f822692	1.0168021
47	0x3f770459	0.9649101
48	0xbf2178dd	-0.6307505
49	0x3e056694	0.13027412
50	0x3f5b2b55	0.85612994
51	0xbf65a2ca	-0.8970152
52	0xbf2743db	-0.65337914
53	0x3e1f3049	0.15545763
54	0x3dfa737b	0.122290574
55	0xbf1d7282	-0.6150285
56	0xbe3b5bab	-0.18296687
57	0xbe1866f9	-0.14883031
58	0x3e6fc0ba	0.23413363
59	0xbf18b7d6	-0.5965551

net.1.weight f4 [40, 60]
0	0xbc8b9b6a	-0.01704188
1	0xbd4ceca8	-0.05003038
2	0xbd716f68	-0.058944136
3	0xbd8b8a05	-0.068134345
4	0xbd3e1a4b	-0.046411794
5	0xbde2002f	-0.11035191
6	0xbcc2764c	-0.023738049
7	0xbbac112a	-0.0052510696
8	0xbd9827f0	-0.074294925
9	0x3e02b4e6	0.1276432
10	0x3d927644	0.07151464
11	0xbd598867	-0.0531086
12	0xbdc7090b	-0.09718522
13	0xbdbbc9f3	-0.09169378
14	0xbe0fc5d9	-0.14040317
15	0xbdc35123	-0.0953696
16	0xbd95b365	-0.073096074
17	0x3c6acdd9	0.0143313045
18	0xbc241c42	-0.010016503
19	0x3daccc06	0.08437352
20	0x3af7be4f	0.0018901321
21	0xbdaff856	-0.08592288
22	0xbdfbafbd	-0.12289379
23	0x3ddb31e1	0.10702873
24	0x3d65b49a	0.05608044
25	0x3d9c8845	0.07643179
26	0xbd562336	-0.052279674
27	0x3d7e918f	0.062150534
28	0xbd901a79	-0.07036299
29	0xbcaee6a8	-0.02135022
30	0xbd3b9155	-0.045792896
31	0x3dca3388	0.0987311
32	0x3ce81bce	0.02833357
33	0xbddc9f8c	-0.10772619
34	0xbe0c0bf1	-0.1367643
35	0x3bd0bfea	0.006370534
36	0xbc8ad4d6	-0.016947191
37	0x3caef3ea	0.021356542
38	0x3d2deb8e	0.04246097
39	0xbc9a7656	-0.018855255
40	0xbb43423b	-0.0029794115
41	0x3d9b7f0e	0.07592593
42	0x3e12c87b	0.1433429
43	0xbd814e59	-0.06313772
44	0x3cda5ffd	0.026657099
45	0x3d8b2b04	0.06795314
46	0xbc70ccee	-0.014697297
47	0x3d16379c	0.036674127
48	0x3d7b2f7a	0.061324574
49	0xbdbe064b	-0.09278544
50	0x3d6fa7f6	0.05850979
51	0x3d14ecf1	0.036358777
52	0x3c5101dc	0.012756791
53	0x3be5ea80	0.00701648
54	0xbdc359b8	-0.09538597
55	0x3e10d27d	0.14142795
56	0xbdb7b933	-0.08970871
57	0xbd78cf1d	-0.060744394
58	0xbdd8ef98	-0.10592574
59	0xbd732fd4	-0.059371784
60	0x3fc7add4	1.5599923
61	0x3ec53702	0.3851853
62	0xbd8a4331	-0.06751097
63	0x3fa17772	1.2614577
64	0x3fae3e81	1.3612825
65	0xbf17e333	-0.59331053
66	0xbe8b477e	-0.27202982
67	0x3d121ba6	0.0356709
68	0xbf510249	-0.8164411
69	0x3eb7151b	0.3575829
70	0x3fc381d4	1.5273995
71	0x3fd62d67	1.6732606
72	0xbface08b	-1.3506025
73	0x3edd6599	0.43241575
74	0xbe360371	-0.1777475
75	0x4047c748	3.1215382
76	0x3fcfc2ba	1.6231301
77	0xbf1eeba6	-0.6207832
78	0xbecf7f4b	-0.40526804
79	0x3f703045	0.93823653
80	0x3f90f541	1.1324846
81	0x3e878a0c	0.2647251
82	0x3dc17ab0	0.09447229
83	0xbdb43053	-0.087982796
84	0x3fbdab3f	1.4817885
85	0xbca2c750	-0.01987043
86	0xbeb8d9e7	-0.36103746
87	0x3c88f91f	0.016720353
88	0x3d36084b	0.044441503
89	0xbfacfa6b	-1.3513921
90	0x3fb46bc3	1.4095386
91	0xbf377438	-0.7166171
92	0xbf8e2e63	-1.1107906
93	0x3ec4957f	0.38395306
94	0x3eaa9b34	0.33321536
95	0xc0584102	-3.3789678
96	0x3ec0d9be	0.37666124
97	0x3d995d1d	0.07488463
98	0xbea87f6a	-0.3290971
99	0x3db5b80f	0.08872997
100	0x3c4c5b38	0.01247292
101	0xbdd812d5	-0.10550467
102	0x3ea23ea4	0.31688416
103	0xc03413c7	-2.813707
104	0xbe64f5a6	-0.22359332
105	0xc08856c8	-4.2605934
106	0xbfc1ca19	-1.51398
107	0xbfa091ea	-1.254453
108	0x4012139f	2.2824476
109	0x3ce94642	0.028475884
110	0xbfb25788	-1.3932962
111	0x4021f3a4	2.5304956
112	0x3fad6041	1.3544999
113	0xbe3543bc	-0.1770162
114	0xbe39e5a2	-0.18154004
115	0x3fcb9dbe	1.5907514
116	0x400cde0b	2.2010524
117	0xbdbf332e	-0.093359336
118	0xbf263b67	-0.6493439
119	0x40037f70	2.0546532
120	0x3f1b1b71	0.6058875
121	0x3f59a100	0.8501129
122	0x3dc8c594	0.0980331
123	0x3f0aea80	0.5426407
124	0x3f0155c4	0.5052149
125	0xbf92c5ea	-1.1466649
126	0xbf1f6ae0	-0.62272453
127	0x3e9a4395	0.30129686
128	0xc0337153	-2.8037918
129	0x3f3393e8	0.7014756
130	0x3e9ab223	0.30214033
131	0x3eee720f	0.46571395
132	0xbeb783df	-0.35842797
133	0x3f33a171	0.70168215
134	0xbf19c52a	-0.60066473
135	0x3f41408c	0.75489116
136	0x3ede60c0	0.4343319
137	0xbf734b26	-0.9503654
138	0xbf0bee6b	-0.5466067
139	0x402b4d24	2.6765833
140	0x3f02a28e	0.5102929
141	0x3f3ea006	0.74462926
142	0x3e85ff1a	0.2617119
143	0x3e994d33	0.2994171
144	0x3f185b11	0.59513956
145	0xbe1b0eb0	-0.15142322
146	0xbef616c9	-0.4806426
147	0xbe0836c9	-0.13302149
148	0x3efb200c	0.49047887
149	0xbf00e68b	-0.5035178
150	0x3ee6db4e	0.4508919
151	0xbf851c57	-1.0399274
152	0xbeecaebb	-0.4622706
153	0x3f5b7a0a	0.8573309
154	0x3f401ffc	0.75048804
155	0xbf5689f5	-0.83804256
156	0x3f1fdfce	0.62450874
157	0x3ecb75ae	0.3973822
158	0xbeb39849	-0.35077122
159	0x3ee91faf	0.45531985
160	0xbe6404fc	-0.22267526
161	0xbe9f2efc	-0.31090534
162	0x3f28135a	0.6565453
163	0xbf0953ec	-0.5364368
164	0xbefa0545	-0.48832145
165	0xbf5827be	-0.8443564
166	0xbecf63a5	-0.4050571
167	0xbed24e41	-0.41075328
168	0x3f8590c8	1.0434809
169	0x3e83edab	0.25767264
170	0xbebf1f3f	-0.37328526
171	0x3f0aa4ee	0.5415791
172	0x3f0246ec	0.5088947
173	0xbe3e3c1c	-0.18577617
174	0xbf03613d	-0.5132025
175	0x3f091ec4	0.5356257
176	0x3f383b45	0.7196544
177	0xbe75af18	-0.23992574
178	0xbfcd49f8	-1.6038198
179	0x3f205679	0.62631947
180	0x3e068327	0.13135968
181	0x3e081170	0.13287902
182	0x3ce49269	0.027901845
183	0x3def29b7	0.11677878
184	0x3e894e3d	0.26817504
185	0xbe564d88	-0.20928013
186	0x3dcecb59	0.10097379
187	0xbe1ccc3b	-0.15312283
188	0x3ca9e4a0	0.0207389
189	0xbdf666a3	-0.12031295
190	0x3e950e1d	0.2911233
191	0x3e70c855	0.2351392
192	0xbe87cfa1	-0.26525596
193	0xbd999cb4	-0.07500592
194	0x3d286500	0.041111946
195	0x3e201553	0.15633135
196	0x3e0c2443	0.13685708
197	0xbdda5519	-0.10660762
198	0x3c57fc60	0.0131827295
199	0x3dcb7171	0.099337466
200	0x3e883d35	0.26609197
201	0x3dfa0eb1	0.122098334
202	0x3d91c0a3	0.07116821
203	0xbc7fe26b	-0.015617947
204	0x3d726386	0.059176944
205	0xbd018c18	-0.031627744
206	0xbdc4c11e	-0.09607147
207	0xbdad87c0	-0.08473158
208	0xbd129153	-0.035783123
209	0xbe16d933	-0.14731292
210	0x3db67f90	0.08911049
211	0xbe3b44ab	-0.18287914
212	0xbe38d9aa	-0.18051782
213	0xbc9851e9	-0.018593745
214	0xbdb0402c	-0.0860599
215	0xbe25e0c3	-0.16199021
216	0x3e0d1e28	0.13781035
217	0xbe286769	-0.16445698
218	0xbc8b24f8	-0.016985402
219	0x3d4b191d	0.049584497
220	0x3e24f576	0.16109261
221	0x3e0f7120	0.14007998
222	0x3da29706	0.07938962
223	0xbe47e058	-0.19519174
224	0xbc7d5d2c	-0.015464108
225	0xbe74d934	-0.23910981
226	0xbe462d11	-0.19353129
227	0xbe1fac02	-0.1559296
228	0x3e537cd2	0.20653084
229	0x3d765159	0.060136173
230	0xbe21f464	-0.15815884
231	0x3e9a0d5e	0.30088323
232	0x3da40066	0.080078885
233	0x3b3644de	0.0027812044
234	0x3da244d4	0.07923284
235	0x3d615aa6	0.05501809
236	0x3e242af2	0.16032007
237	0xbbc2ae1b	-0.005941165
238	0xbde04a0a	-0.10951622
239	0x3e1895ce	0.14900896
240	0xbd8b71c3	-0.06808808
241	0xbe8ea7b2	-0.27862316
242	0x3c83e99d	0.016102606
243	0x3ceacd96	0.028662484
244	0xbdbcd8cb	-0.092210375
245	0x3e2645d1	0.1623757
246	0x3e773c7c	0.24144167
247	0xbed09b4f	-0.4074349
248	0x3e2661c4	0.16248232
249	0xbede3847	-0.4340231
250	0xbd8b88d5	-0.06813208
251	0x39bddfb0	0.0003621555
252	0x3daedff1	0.08538807
253	0xbe6d4222	-0.23169759
254	0x3eaf42f8	0.3423078
255	0xbd120b2f	-0.035655197

net.1.bias f4 [40]
0	0xbc7c5c93	-0.015402931
1	0xbdfefa95	-0.124501385
2	0xbe651384	-0.22370726
3	0x3d9d528d	0.07681761
4	0x3cfcf125	0.030876705
5	0x3d3fcc32	0.046825595
6	0x3eb64ec6	0.35606974
7	0xbd4815ec	-0.04884903
8	0x3eb21ff5	0.34790006
9	0xbd9ba0fc	-0.07599065
10	0x3dba02fe	0.09082602
11	0xbe5ddb73	-0.21665744
12	0x3e54b8fa	0.20773688
13	0xbd001896	-0.031273447
14	0xbdf5c9e2	-0.12001397
15	0xbe3adb8d	-0.18247814
16	0xbdb966b1	-0.0905279
17	0x3eb9ab50	0.36263514
18	0xbd4fdf5e	-0.05075013
19	0x3d8b2b03	0.06795313
20	0xbdb57ec7	-0.088620715
21	0xbdb04ba6	-0.08608179
22	0xbb3a66d3	-0.0028442636
23	0x3e202fac	0.15643185
24	0x3d26620a	0.04062084
25	0x3d3186ad	0.043341327
26	0xbdbe2b6d	-0.092856266
27	0xbe3cfab5	-0.18455012
28	0xbd384d24	-0.044995442
29	0x3d8425e6	0.06452541
30	0xbdc029b1	-0.09382952
31	0xbe95f3a4	-0.29287446
32	0x3caf02ac	0.021363579
33	0x3eb3ef02	0.35143286
34	0x3e0b0e52	0.13579682
35	0x3b4ec6c4	0.003155158
36	0xbe03dae5	-0.1287647
37	0x3c22d889	0.009939321
38	0xbd20e7d1	-0.039283577
39	0x3d1ab518	0.03777036

net.2.weight f4 [40, 40]
0	0xbe83ddf6	-0.2575528
1	0xbcc40ea5	-0.023932764
2	0xbc163bf4	-0.009169567
3	0xbe908da4	-0.28233063
4	0xbe6bba33	-0.23020248
5	0xbe6f8a21	-0.23392536
6	0x3ec47966	0.3837387
7	0xbafb1ed6	-0.001915897
8	0x3ea93b28	0.33052945
9	0x3e39e10b	0.18152253
10	0xbe872002	-0.26391608
11	0xbd4c626b	-0.049898546
12	0x3eaa89d9	0.33308294
13	0x3d5c9815	0.053855974
14	0xbe8bf20c	-0.27333105
15	0x3d6e53a8	0.05818525
16	0xbe8bd765	-0.2731277
17	0x3ee8db70	0.45479918
18	0xbdf6b18e	-0.120455846
19	0x3e5a79ca	0.21335521
20	0xbeab4afb	-0.33455643
21	0xbe997961	-0.29975417
22	0xbd4b31c9	-0.049608026
23	0x3ed8b9e1	0.42329314
24	0x3db2e363	0.08734777
25	0x3e7c4233	0.24634628
26	0xbdbb7760	-0.09153628
27	0x3cf418b7	0.029796941
28	0xbea0415a	-0.3129986
29	0xbda5f667	-0.08103638
30	0x3e3eef6d	0.18646021
31	0xbd3fe850	-0.04685241
32	0xbe9dd498	-0.3082626
33	0x3f0904fc	0.5352323
34	0xbe08dc1f	-0.1336522
35	0xbe2a8f07	-0.16656123
36	0xbe54fe39	-0.20800103
37	0x3e8fceb2	0.28087384
38	0x3b89d5c2	0.00420639
39	0xbe7c47c2	-0.24636748
40	0xba0ca684	-0.0005365389
41	0x3dde84d2	0.10865177
42	0x3e2a2aed	0.16617937
43	0xbd57e76e	-0.052710943
44	0x3d4f6164	0.05062999
45	0xbd8baa2d	-0.06819568
46	0xbce864dd	-0.028368408
47	0x3d1b7e7e	0.03796243
48	0xbc80e5ad	-0.015734518
49	0x3e8e043c	0.27737606
50	0xbe2ec201	-0.17066194
51	0x3dc9c96c	0.09852871
52	0xbd8aa4f9	-0.06769747
53	0xbd09d4ee	-0.03365033
54	0xbd23a5f2	-0.03995318
55	0x3d643c94	0.055721834
56	0xbe23f870	-0.1601274
57	0x3d88530b	0.06656464
58	0xbef8e3da	-0.48611337
59	0x3e07b06a	0.1325089
60	0xbe0f7632	-0.14009932
61	0xbf0ce7ca	-0.5504118
62	0xbadab35f	-0.0016685537
63	0x3e2ab56e	0.16670772
64	0x3e8b598a	0.2721675
65	0x3e5b254c	0.21400946
66	0xbd92eaf0	-0.07173717
67	0x3d11a34a	0.035556115
68	0xbe25e68b	-0.16201226
69	0xbe1a8a2f	-0.15091775
70	0x3e3651de	0.17804667
71	0xbd217402	-0.039417274
72	0xbe843292	-0.25819832
73	0x3cd1fc55	0.025633017
74	0x3d7c1fc8	0.061553746
75	0xbe5da4da	-0.21644917
76	0xbe88de48	-0.26732087
77	0x3ded16cb	0.11576613
78	0xbac9195a	-0.0015342638
79	0xbe077968	-0.13229907
80	0xbccf8aba	-0.025334705
81	0xbc3b0445	-0.011414592
82	0x3e1fe837	0.15615927
83	0xbe3e56e0	-0.18587828
84	0xbc81cfbd	-0.015846128
85	0xbe3afacd	-0.18259735
86	0x3ed4ef3b	0.41588768
87	0x3c9b1653	0.018931543
88	0x3ee7469f	0.45171067
89	0x3e1498ad	0.14511366
90	0xbd9fe869	-0.078080006
91	0x3d9b562c	0.07584795
92	0x3ee3bf6a	0.44481975
93	0xbd38fa25	-0.04516043
94	0xbeaa7ee4	-0.33299935
95	0x3d776baf	0.06040543
96	0xbeb5da44	-0.35518086
97	0x3ec4c154	0.38428748
98	0xbec9bdce	-0.39402622
99	0x3e861059	0.26184347
100	0xbdad6264	-0.08466032
101	0xbe014dac	-0.12627286
102	0x3e270fe0	0.1631465
103	0x3ec8ee15	0.39244142
104	0xbd17bc6f	-0.03704494
105	0x3e9849fe	0.29743952
106	0xbd0e5fd0	-0.034759343
107	0x3d384fa4	0.044997826
108	0xbe8d3476	-0.27579087
109	0xbe1ae77e	-0.1512737
110	0x3de17171	0.11007965
111	0xbd230153	-0.039796185
112	0x3da7bd3b	0.0819039
113	0x3efd0c8a	0.4942363
114	0xbd8ca186	-0.06866746
115	0xbe6c9a69	-0.23105778
116	0xbe9fe2e5	-0.31227794
117	0x3e877872	0.2645908
118	0xbe62339c	-0.2209
119	0xbe8ecdb2	-0.27891308
120	0x3bc40368	0.0059818514
121	0xbc11e364	-0.008904312
122	0x3c1771f8	0.009243481
123	0x3ebd07d5	0.36920038
124	0x3e804028	0.25048947
125	0x3ea3cc66	0.3199188
126	0xbd181b43	-0.037135374
127	0xbde3143d	-0.110878445
128	0xbe1a1347	-0.15046416
129	0xbe41d895	-0.18930276
130	0x3c77fca1	0.015135915
131	0xbdd72b9b	-0.10506364
132	0xbdaa0681	-0.08302022
133	0x3d369ca1	0.044582967
134	0x3e05a329	0.13050522
135	0xbd3702e4	-0.04468049
136	0x3db74f69	0.08950693
137	0xbd34b6bd	-0.044119585
138	0x3e9b4ea4	0.30333436
139	0xbeb23309	-0.34804562
140	0x3da41e02	0.08013536
141	0x3e1d5903	0.15365987
142	0xbc3a79b8	-0.011381559
143	0xbe2160f4	-0.15759641
144	0xbd1a11c2	-0.03761459
145	0xbe1b672e	-0.15176079
146	0x3d47a41b	0.048740488
147	0xbe14cad1	-0.14530493
148	0x3e904d31	0.28183892
149	0x3e82d564	0.2555343
150	0xbe13c428	-0.14430296
151	0x3d216434	0.0394022
152	0x3dc6fd37	0.09716266
153	0x3d7e58b6	0.06209632
154	0xbd7b0dc4	-0.061292425
155	0x3e0879d0	0.13327718
156	0x3e50bd6f	0.20384763
157	0xbd659111	-0.05604655
158	0x3b2cbf59	0.002635917
159	0x3e07111b	0.13190119
160	0xbc384de2	-0.011249037
161	0xbbaeb43a	-0.0053315433
162	0x3e17721b	0.14789622
163	0xbd46c823	-0.04853071
164	0xbda9d86d	-0.08293233
165	0x3d33ecf3	0.043927144
166	0x3e7d0d3a	0.24712077
167	0xbcb0478e	-0.021518495
168	0x3e36b46d	0.17842264
169	0x3e3f1325	0.18659647
170	0xbe86892e	-0.26276535
171	0xbf037d27	-0.5136284
172	0x3e434cb1	0.19072224
173	0x3ee526ce	0.44756168
174	0x3c8ca3a6	0.017167877
175	0xbcb52c65	-0.022115896
176	0xbe5f4d54	-0.21806842
177	0x3e883d75	0.26609388
178	0xbe4c1b3f	-0.19932269
179	0x3eb4df2a	0.3532651
180	0xbe161e90	-0.14660096
181	0xbe2ae9d6	-0.16690764
182	0xbd074b17	-0.033030596
183	0x3e2cc7a4	0.16873032
184	0x3d34578c	0.044028804
185	0xbd9c87c9	-0.076430865
186	0xbed2de10	-0.41185045
187	0xbcf680d1	-0.030090721
188	0xbe4ada2d	-0.1980979
189	0xbe1bd504	-0.15217978
190	0x3e83ade6	0.2571861
191	0x3f3c9393	0.7366268
192	0xbede4205	-0.43409744
193	0x3e741885	0.23837478
194	0xbd1401fd	-0.03613471
195	0xbe852fa2	-0.26012903
196	0xbe9cdf03	-0.30638894
197	0x3e511b79	0.20420636
198	0x3bb5131d	0.00552596
199	0xbe926423	-0.28592023
200	0x3a8de26e	0.0010824928
201	0x3d149840	0.03627801
202	0x3e1b1380	0.15144157
203	0xbcafa2f9	-0.021440016
204	0xbda2094c	-0.079119295
205	0xbe1f7a1f	-0.15573929
206	0x3e22a15d	0.15881868
207	0xbcfb0c08	-0.030645385
208	0x3e50ba39	0.20383538
209	0x3ab2ebc6	0.0013650588
210	0xbdbf911f	-0.093538515
211	0xbf617596	-0.88070047
212	0x3e1f618c	0.15564555
213	0xbd638870	-0.05555004
214	0x3d039075	0.032120187
215	0x3e0ae45a	0.13563672
216	0xbe4a7750	-0.19772077
217	0x3e474428	0.19459593
218	0xbe50ec01	-0.20402528
219	0x3e67ff49	0.22655977
220	0xbe6b690d	-0.22989292
221	0xbe56b750	-0.20968366
222	0x3b2eeebe	0.0026692594
223	0x3e8e43ae	0.2778601
224	0x3db7225f	0.08942103
225	0x3e1f49fb	0.15555565
226	0xbf2d6507	-0.6773228
227	0x3d9dc037	0.07702678
228	0xbb6c3d6d	-0.0036047355
229	0xbe6c3fc9	-0.23071207
230	0x3bcc029b	0.0062258965
231	0x3f921098	1.1411314
232	0xbd40297d	-0.046914566
233	0x3d57d803	0.05269624
234	0x3d15e629	0.03659645
235	0xbd7eddf0	-0.062223375
236	0xbe3a0c74	-0.18168813
237	0x3d685017	0.056717005
238	0xba14d782	-0.0005677865
239	0xbe8ad146	-0.27112788
240	0xbab5e3e7	-0.0013877124
241	0x3c98e019	0.018661546
242	0xbe0fdb48	-0.14048493
243	0xbd0f7da0	-0.035031915
244	0x3da7e62d	0.081981994
245	0x3e152452	0.14564636
246	0xbe33281e	-0.17495772
247	0x3da1ce9b	0.07900735
248	0xbe1019ab	-0.14072292
249	0xbe7ac59d	-0.24489446
250	0x3e455fb3	0.19274788
251	0xbd0f32ad	-0.034960438
252	0xbda51b96	-0.08061902
253	0x3d46d06f	0.04853862
254	0x3db82634	0.08991662
255	0xbd62656b	-0.0552725

net.2.bias f4 [40]
0	0x3f0c326f	0.54764456
1	0xbd008d36	-0.03138467
2	0x3ec15fe6	0.37768477
3	0x3c0c160f	0.008550181
4	0x3ecbe73f	0.39824864
5	0x3e9c1f2a	0.30492526
6	0x3dbdeafb	0.092733346
7	0x3e626db3	0.2211216
8	0xbf602992	-0.8756343
9	0xbeb0597e	-0.34443277
10	0x3db9f524	0.0907996
11	0xbf758c98	-0.95917654
12	0x3e907e72	0.2822147
13	0x3f55b297	0.8347563
14	0xbeab0ec0	-0.3340969
15	0x3ee09d99	0.43870237
16	0x3f654db8	0.89571714
17	0x3dd16a24	0.10225323
18	0xbf0825be	-0.5318259
19	0x3ec73c09	0.3891299
20	0x3f1ef263	0.620886
21	0xbe3de1dc	-0.1854319
22	0x3f494e41	0.7863503
23	0x3e84f606	0.2596895
24	0xbda90580	-0.08253002
25	0x3eaf17d4	0.34197867
26	0xbe9d1c80	-0.30685806
27	0x3ebe721f	0.37196442
28	0x3f027dd3	0.5097324
29	0xbe236ffe	-0.1596069
30	0x3d93a453	0.07209077
31	0x3f382102	0.71925366
32	0x3f4ae8ba	0.7926136
33	0xbeb5f0de	-0.3553533
34	0xbd4c2ae7	-0.049845602
35	0x3d42e11a	0.047577955
36	0x3d674e30	0.05647105
37	0x3db70539	0.08936543
38	0xbe8fddc0	-0.2809887
39	0xbcb91169	-0.02259131

net.3.weight f4 [1, 40]
0	0x3cbc6431	0.022996994
1	0x3e4e15ce	0.20125505
2	0x3ca0fa7a	0.019650687
3	0xbe2df6ab	-0.16988628
4	0xbdab5495	-0.08365742
5	0xbe4afe28	-0.19823515
6	0xbe775bf2	-0.24156168
7	0x3e80278d	0.25030175
8	0xbd155554	-0.03645833
9	0x3e0c7fba	0.13720599
10	0x3d77b48a	0.06047491
11	0xbccca3a8	-0.024980381
12	0x3e034f43	0.12823205
13	0x3c169ecf	0.009193136
14	0xbe93f691	-0.28899053
15	0xbb6f031b	-0.0036470357
16	0x3c6f3128	0.014599122
17	0x3de037be	0.10948132
18	0xbcafa256	-0.021439712
19	0x3d5852a4	0.052813187
20	0x3dec8a4d	0.11549816
21	0xbdbb0220	-0.09131265
22	0x3ce6228b	0.028092643
23	0xbe23bec0	-0.15990734
24	0x3e2581cf	0.161628
25	0x3d2301c2	0.0397966
26	0xbdce797c	-0.10081765
27	0x3daeac96	0.08529012
28	0x3dd6575d	0.10465882
29	0xbe50c9b3	-0.20389442
30	0xbdbc2212	-0.09186186
31	0xbd8dd113	-0.06924643
32	0x3caab805	0.0208397
33	0xbd28bdd3	-0.041196655
34	0x3e0a2e30	0.13494182
35	0xbd338c6e	-0.043835096
36	0xbe1030c9	-0.1408111
37	0x3e090c16	0.13383517
38	0xbd280f9e	-0.04103052
39	0x3e508253	0.20362215
